node {
  name: "global_step/Initializer/zeros"
  op: "Const"
  attr {
    key: "_class"
    value {
      list {
        s: "loc:@global_step"
      }
    }
  }
  attr {
    key: "_output_shapes"
    value {
      list {
        shape {
        }
      }
    }
  }
  attr {
    key: "dtype"
    value {
      type: DT_INT64
    }
  }
  attr {
    key: "value"
    value {
      tensor {
        dtype: DT_INT64
        tensor_shape {
        }
        int64_val: 0
      }
    }
  }
}
node {
  name: "global_step"
  op: "VariableV2"
  attr {
    key: "_class"
    value {
      list {
        s: "loc:@global_step"
      }
    }
  }
  attr {
    key: "_output_shapes"
    value {
      list {
        shape {
        }
      }
    }
  }
  attr {
    key: "container"
    value {
      s: ""
    }
  }
  attr {
    key: "dtype"
    value {
      type: DT_INT64
    }
  }
  attr {
    key: "shape"
    value {
      shape {
      }
    }
  }
  attr {
    key: "shared_name"
    value {
      s: ""
    }
  }
}
node {
  name: "global_step/Assign"
  op: "Assign"
  input: "global_step"
  input: "global_step/Initializer/zeros"
  attr {
    key: "T"
    value {
      type: DT_INT64
    }
  }
  attr {
    key: "_class"
    value {
      list {
        s: "loc:@global_step"
      }
    }
  }
  attr {
    key: "_output_shapes"
    value {
      list {
        shape {
        }
      }
    }
  }
  attr {
    key: "use_locking"
    value {
      b: true
    }
  }
  attr {
    key: "validate_shape"
    value {
      b: true
    }
  }
}
node {
  name: "global_step/read"
  op: "Identity"
  input: "global_step"
  attr {
    key: "T"
    value {
      type: DT_INT64
    }
  }
  attr {
    key: "_class"
    value {
      list {
        s: "loc:@global_step"
      }
    }
  }
  attr {
    key: "_output_shapes"
    value {
      list {
        shape {
        }
      }
    }
  }
}
node {
  name: "global_step/IsVariableInitialized"
  op: "IsVariableInitialized"
  input: "global_step"
  attr {
    key: "_class"
    value {
      list {
        s: "loc:@global_step"
      }
    }
  }
  attr {
    key: "_output_shapes"
    value {
      list {
        shape {
        }
      }
    }
  }
  attr {
    key: "dtype"
    value {
      type: DT_INT64
    }
  }
}
node {
  name: "global_step/cond/Switch"
  op: "Switch"
  input: "global_step/IsVariableInitialized"
  input: "global_step/IsVariableInitialized"
  attr {
    key: "T"
    value {
      type: DT_BOOL
    }
  }
  attr {
    key: "_output_shapes"
    value {
      list {
        shape {
        }
        shape {
        }
      }
    }
  }
}
node {
  name: "global_step/cond/switch_t"
  op: "Identity"
  input: "global_step/cond/Switch:1"
  attr {
    key: "T"
    value {
      type: DT_BOOL
    }
  }
  attr {
    key: "_output_shapes"
    value {
      list {
        shape {
        }
      }
    }
  }
}
node {
  name: "global_step/cond/switch_f"
  op: "Identity"
  input: "global_step/cond/Switch"
  attr {
    key: "T"
    value {
      type: DT_BOOL
    }
  }
  attr {
    key: "_output_shapes"
    value {
      list {
        shape {
        }
      }
    }
  }
}
node {
  name: "global_step/cond/pred_id"
  op: "Identity"
  input: "global_step/IsVariableInitialized"
  attr {
    key: "T"
    value {
      type: DT_BOOL
    }
  }
  attr {
    key: "_output_shapes"
    value {
      list {
        shape {
        }
      }
    }
  }
}
node {
  name: "global_step/cond/read"
  op: "Identity"
  input: "global_step/cond/read/Switch:1"
  attr {
    key: "T"
    value {
      type: DT_INT64
    }
  }
  attr {
    key: "_output_shapes"
    value {
      list {
        shape {
        }
      }
    }
  }
}
node {
  name: "global_step/cond/read/Switch"
  op: "RefSwitch"
  input: "global_step"
  input: "global_step/cond/pred_id"
  attr {
    key: "T"
    value {
      type: DT_INT64
    }
  }
  attr {
    key: "_class"
    value {
      list {
        s: "loc:@global_step"
      }
    }
  }
  attr {
    key: "_output_shapes"
    value {
      list {
        shape {
        }
        shape {
        }
      }
    }
  }
}
node {
  name: "global_step/cond/Switch_1"
  op: "Switch"
  input: "global_step/Initializer/zeros"
  input: "global_step/cond/pred_id"
  attr {
    key: "T"
    value {
      type: DT_INT64
    }
  }
  attr {
    key: "_class"
    value {
      list {
        s: "loc:@global_step"
      }
    }
  }
  attr {
    key: "_output_shapes"
    value {
      list {
        shape {
        }
        shape {
        }
      }
    }
  }
}
node {
  name: "global_step/cond/Merge"
  op: "Merge"
  input: "global_step/cond/Switch_1"
  input: "global_step/cond/read"
  attr {
    key: "N"
    value {
      i: 2
    }
  }
  attr {
    key: "T"
    value {
      type: DT_INT64
    }
  }
  attr {
    key: "_output_shapes"
    value {
      list {
        shape {
        }
        shape {
        }
      }
    }
  }
}
node {
  name: "global_step/add/y"
  op: "Const"
  attr {
    key: "_output_shapes"
    value {
      list {
        shape {
        }
      }
    }
  }
  attr {
    key: "dtype"
    value {
      type: DT_INT64
    }
  }
  attr {
    key: "value"
    value {
      tensor {
        dtype: DT_INT64
        tensor_shape {
        }
        int64_val: 0
      }
    }
  }
}
node {
  name: "global_step/add"
  op: "Add"
  input: "global_step/cond/Merge"
  input: "global_step/add/y"
  attr {
    key: "T"
    value {
      type: DT_INT64
    }
  }
  attr {
    key: "_output_shapes"
    value {
      list {
        shape {
        }
      }
    }
  }
}
node {
  name: "string_to_index/hash_table/Const"
  op: "Const"
  device: "/device:CPU:0"
  attr {
    key: "_output_shapes"
    value {
      list {
        shape {
        }
      }
    }
  }
  attr {
    key: "dtype"
    value {
      type: DT_INT64
    }
  }
  attr {
    key: "value"
    value {
      tensor {
        dtype: DT_INT64
        tensor_shape {
        }
        int64_val: -1
      }
    }
  }
}
node {
  name: "string_to_index/hash_table"
  op: "HashTableV2"
  device: "/device:CPU:0"
  attr {
    key: "_output_shapes"
    value {
      list {
        shape {
        }
      }
    }
  }
  attr {
    key: "container"
    value {
      s: ""
    }
  }
  attr {
    key: "key_dtype"
    value {
      type: DT_STRING
    }
  }
  attr {
    key: "shared_name"
    value {
      s: "hash_table_data/src-vocab.txt_24765_-2_-1"
    }
  }
  attr {
    key: "use_node_name_sharing"
    value {
      b: false
    }
  }
  attr {
    key: "value_dtype"
    value {
      type: DT_INT64
    }
  }
}
node {
  name: "string_to_index/hash_table/table_init/asset_filepath"
  op: "Const"
  device: "/device:CPU:0"
  attr {
    key: "_output_shapes"
    value {
      list {
        shape {
        }
      }
    }
  }
  attr {
    key: "dtype"
    value {
      type: DT_STRING
    }
  }
  attr {
    key: "value"
    value {
      tensor {
        dtype: DT_STRING
        tensor_shape {
        }
        string_val: "data/src-vocab.txt"
      }
    }
  }
}
node {
  name: "string_to_index/hash_table/table_init"
  op: "InitializeTableFromTextFileV2"
  input: "string_to_index/hash_table"
  input: "string_to_index/hash_table/table_init/asset_filepath"
  device: "/device:CPU:0"
  attr {
    key: "delimiter"
    value {
      s: "\t"
    }
  }
  attr {
    key: "key_index"
    value {
      i: -2
    }
  }
  attr {
    key: "value_index"
    value {
      i: -1
    }
  }
  attr {
    key: "vocab_size"
    value {
      i: 24765
    }
  }
}
node {
  name: "filenames"
  op: "Const"
  device: "/device:CPU:0"
  attr {
    key: "_output_shapes"
    value {
      list {
        shape {
        }
      }
    }
  }
  attr {
    key: "dtype"
    value {
      type: DT_STRING
    }
  }
  attr {
    key: "value"
    value {
      tensor {
        dtype: DT_STRING
        tensor_shape {
        }
        string_val: "data/src_coat_train.csv"
      }
    }
  }
}
node {
  name: "compression_type"
  op: "Const"
  device: "/device:CPU:0"
  attr {
    key: "_output_shapes"
    value {
      list {
        shape {
        }
      }
    }
  }
  attr {
    key: "dtype"
    value {
      type: DT_STRING
    }
  }
  attr {
    key: "value"
    value {
      tensor {
        dtype: DT_STRING
        tensor_shape {
        }
        string_val: ""
      }
    }
  }
}
node {
  name: "buffer_size"
  op: "Const"
  device: "/device:CPU:0"
  attr {
    key: "_output_shapes"
    value {
      list {
        shape {
        }
      }
    }
  }
  attr {
    key: "dtype"
    value {
      type: DT_INT64
    }
  }
  attr {
    key: "value"
    value {
      tensor {
        dtype: DT_INT64
        tensor_shape {
        }
        int64_val: 262144
      }
    }
  }
}
node {
  name: "string_to_index_1/hash_table/Const"
  op: "Const"
  device: "/device:CPU:0"
  attr {
    key: "_output_shapes"
    value {
      list {
        shape {
        }
      }
    }
  }
  attr {
    key: "dtype"
    value {
      type: DT_INT64
    }
  }
  attr {
    key: "value"
    value {
      tensor {
        dtype: DT_INT64
        tensor_shape {
        }
        int64_val: -1
      }
    }
  }
}
node {
  name: "string_to_index_1/hash_table"
  op: "HashTableV2"
  device: "/device:CPU:0"
  attr {
    key: "_output_shapes"
    value {
      list {
        shape {
        }
      }
    }
  }
  attr {
    key: "container"
    value {
      s: ""
    }
  }
  attr {
    key: "key_dtype"
    value {
      type: DT_STRING
    }
  }
  attr {
    key: "shared_name"
    value {
      s: "hash_table_data/tgt-vocab.txt_42507_-2_-1"
    }
  }
  attr {
    key: "use_node_name_sharing"
    value {
      b: false
    }
  }
  attr {
    key: "value_dtype"
    value {
      type: DT_INT64
    }
  }
}
node {
  name: "string_to_index_1/hash_table/table_init/asset_filepath"
  op: "Const"
  device: "/device:CPU:0"
  attr {
    key: "_output_shapes"
    value {
      list {
        shape {
        }
      }
    }
  }
  attr {
    key: "dtype"
    value {
      type: DT_STRING
    }
  }
  attr {
    key: "value"
    value {
      tensor {
        dtype: DT_STRING
        tensor_shape {
        }
        string_val: "data/tgt-vocab.txt"
      }
    }
  }
}
node {
  name: "string_to_index_1/hash_table/table_init"
  op: "InitializeTableFromTextFileV2"
  input: "string_to_index_1/hash_table"
  input: "string_to_index_1/hash_table/table_init/asset_filepath"
  device: "/device:CPU:0"
  attr {
    key: "delimiter"
    value {
      s: "\t"
    }
  }
  attr {
    key: "key_index"
    value {
      i: -2
    }
  }
  attr {
    key: "value_index"
    value {
      i: -1
    }
  }
  attr {
    key: "vocab_size"
    value {
      i: 42507
    }
  }
}
node {
  name: "filenames_1"
  op: "Const"
  device: "/device:CPU:0"
  attr {
    key: "_output_shapes"
    value {
      list {
        shape {
        }
      }
    }
  }
  attr {
    key: "dtype"
    value {
      type: DT_STRING
    }
  }
  attr {
    key: "value"
    value {
      tensor {
        dtype: DT_STRING
        tensor_shape {
        }
        string_val: "data/tgt_coat_train.csv"
      }
    }
  }
}
node {
  name: "compression_type_1"
  op: "Const"
  device: "/device:CPU:0"
  attr {
    key: "_output_shapes"
    value {
      list {
        shape {
        }
      }
    }
  }
  attr {
    key: "dtype"
    value {
      type: DT_STRING
    }
  }
  attr {
    key: "value"
    value {
      tensor {
        dtype: DT_STRING
        tensor_shape {
        }
        string_val: ""
      }
    }
  }
}
node {
  name: "buffer_size_1"
  op: "Const"
  device: "/device:CPU:0"
  attr {
    key: "_output_shapes"
    value {
      list {
        shape {
        }
      }
    }
  }
  attr {
    key: "dtype"
    value {
      type: DT_INT64
    }
  }
  attr {
    key: "value"
    value {
      tensor {
        dtype: DT_INT64
        tensor_shape {
        }
        int64_val: 262144
      }
    }
  }
}
node {
  name: "tensors/component_0"
  op: "Const"
  device: "/device:CPU:0"
  attr {
    key: "_output_shapes"
    value {
      list {
        shape {
          dim {
            size: 4
          }
        }
      }
    }
  }
  attr {
    key: "dtype"
    value {
      type: DT_INT64
    }
  }
  attr {
    key: "value"
    value {
      tensor {
        dtype: DT_INT64
        tensor_shape {
          dim {
            size: 4
          }
        }
        tensor_content: "…"
      }
    }
  }
}
node {
  name: "buffer_size_2"
  op: "Const"
  device: "/device:CPU:0"
  attr {
    key: "_output_shapes"
    value {
      list {
        shape {
        }
      }
    }
  }
  attr {
    key: "dtype"
    value {
      type: DT_INT64
    }
  }
  attr {
    key: "value"
    value {
      tensor {
        dtype: DT_INT64
        tensor_shape {
        }
        int64_val: 4
      }
    }
  }
}
node {
  name: "seed"
  op: "Const"
  device: "/device:CPU:0"
  attr {
    key: "_output_shapes"
    value {
      list {
        shape {
        }
      }
    }
  }
  attr {
    key: "dtype"
    value {
      type: DT_INT64
    }
  }
  attr {
    key: "value"
    value {
      tensor {
        dtype: DT_INT64
        tensor_shape {
        }
        int64_val: 0
      }
    }
  }
}
node {
  name: "seed2"
  op: "Const"
  device: "/device:CPU:0"
  attr {
    key: "_output_shapes"
    value {
      list {
        shape {
        }
      }
    }
  }
  attr {
    key: "dtype"
    value {
      type: DT_INT64
    }
  }
  attr {
    key: "value"
    value {
      tensor {
        dtype: DT_INT64
        tensor_shape {
        }
        int64_val: 0
      }
    }
  }
}
node {
  name: "buffer_size_3"
  op: "Const"
  device: "/device:CPU:0"
  attr {
    key: "_output_shapes"
    value {
      list {
        shape {
        }
      }
    }
  }
  attr {
    key: "dtype"
    value {
      type: DT_INT64
    }
  }
  attr {
    key: "value"
    value {
      tensor {
        dtype: DT_INT64
        tensor_shape {
        }
        int64_val: 100000
      }
    }
  }
}
node {
  name: "seed_1"
  op: "Const"
  device: "/device:CPU:0"
  attr {
    key: "_output_shapes"
    value {
      list {
        shape {
        }
      }
    }
  }
  attr {
    key: "dtype"
    value {
      type: DT_INT64
    }
  }
  attr {
    key: "value"
    value {
      tensor {
        dtype: DT_INT64
        tensor_shape {
        }
        int64_val: 0
      }
    }
  }
}
node {
  name: "seed2_1"
  op: "Const"
  device: "/device:CPU:0"
  attr {
    key: "_output_shapes"
    value {
      list {
        shape {
        }
      }
    }
  }
  attr {
    key: "dtype"
    value {
      type: DT_INT64
    }
  }
  attr {
    key: "value"
    value {
      tensor {
        dtype: DT_INT64
        tensor_shape {
        }
        int64_val: 0
      }
    }
  }
}
node {
  name: "num_parallel_calls"
  op: "Const"
  device: "/device:CPU:0"
  attr {
    key: "_output_shapes"
    value {
      list {
        shape {
        }
      }
    }
  }
  attr {
    key: "dtype"
    value {
      type: DT_INT32
    }
  }
  attr {
    key: "value"
    value {
      tensor {
        dtype: DT_INT32
        tensor_shape {
        }
        int_val: 4
      }
    }
  }
}
node {
  name: "count"
  op: "Const"
  device: "/device:CPU:0"
  attr {
    key: "_output_shapes"
    value {
      list {
        shape {
        }
      }
    }
  }
  attr {
    key: "dtype"
    value {
      type: DT_INT64
    }
  }
  attr {
    key: "value"
    value {
      tensor {
        dtype: DT_INT64
        tensor_shape {
        }
        int64_val: -1
      }
    }
  }
}
node {
  name: "buffer_size_4"
  op: "Const"
  device: "/device:CPU:0"
  attr {
    key: "_output_shapes"
    value {
      list {
        shape {
        }
      }
    }
  }
  attr {
    key: "dtype"
    value {
      type: DT_INT64
    }
  }
  attr {
    key: "value"
    value {
      tensor {
        dtype: DT_INT64
        tensor_shape {
        }
        int64_val: -1
      }
    }
  }
}
node {
  name: "optimizations"
  op: "Const"
  device: "/device:CPU:0"
  attr {
    key: "_output_shapes"
    value {
      list {
        shape {
          dim {
            size: 3
          }
        }
      }
    }
  }
  attr {
    key: "dtype"
    value {
      type: DT_STRING
    }
  }
  attr {
    key: "value"
    value {
      tensor {
        dtype: DT_STRING
        tensor_shape {
          dim {
            size: 3
          }
        }
        string_val: "map_and_batch_fusion"
        string_val: "noop_elimination"
        string_val: "shuffle_and_repeat_fusion"
      }
    }
  }
}
node {
  name: "IteratorV2"
  op: "IteratorV2"
  device: "/device:CPU:0"
  attr {
    key: "_output_shapes"
    value {
      list {
        shape {
        }
      }
    }
  }
  attr {
    key: "container"
    value {
      s: ""
    }
  }
  attr {
    key: "output_shapes"
    value {
      list {
        shape {
          dim {
            size: -1
          }
          dim {
            size: -1
          }
        }
        shape {
          dim {
            size: -1
          }
        }
        shape {
          dim {
            size: -1
          }
          dim {
            size: -1
          }
        }
        shape {
          dim {
            size: -1
          }
          dim {
            size: -1
          }
        }
        shape {
          dim {
            size: -1
          }
          dim {
            size: -1
          }
        }
        shape {
          dim {
            size: -1
          }
        }
        shape {
          dim {
            size: -1
          }
          dim {
            size: -1
          }
        }
      }
    }
  }
  attr {
    key: "output_types"
    value {
      list {
        type: DT_INT64
        type: DT_INT32
        type: DT_STRING
        type: DT_INT64
        type: DT_INT64
        type: DT_INT32
        type: DT_STRING
      }
    }
  }
  attr {
    key: "shared_name"
    value {
      s: ""
    }
  }
}
node {
  name: "TensorSliceDataset"
  op: "TensorSliceDataset"
  input: "tensors/component_0"
  device: "/device:CPU:0"
  attr {
    key: "Toutput_types"
    value {
      list {
        type: DT_INT64
      }
    }
  }
  attr {
    key: "_class"
    value {
      list {
        s: "loc:@IteratorV2"
      }
    }
  }
  attr {
    key: "_output_shapes"
    value {
      list {
        shape {
        }
      }
    }
  }
  attr {
    key: "output_shapes"
    value {
      list {
        shape {
        }
      }
    }
  }
}
node {
  name: "ShuffleDataset"
  op: "ShuffleDataset"
  input: "TensorSliceDataset"
  input: "buffer_size_2"
  input: "seed"
  input: "seed2"
  device: "/device:CPU:0"
  attr {
    key: "_class"
    value {
      list {
        s: "loc:@IteratorV2"
      }
    }
  }
  attr {
    key: "_output_shapes"
    value {
      list {
        shape {
        }
      }
    }
  }
  attr {
    key: "output_shapes"
    value {
      list {
        shape {
        }
      }
    }
  }
  attr {
    key: "output_types"
    value {
      list {
        type: DT_INT64
      }
    }
  }
  attr {
    key: "reshuffle_each_iteration"
    value {
      b: true
    }
  }
}
node {
  name: "FlatMapDataset"
  op: "FlatMapDataset"
  input: "ShuffleDataset"
  input: "filenames"
  input: "compression_type"
  input: "buffer_size"
  input: "filenames_1"
  input: "compression_type_1"
  input: "buffer_size_1"
  device: "/device:CPU:0"
  attr {
    key: "Targuments"
    value {
      list {
        type: DT_STRING
        type: DT_STRING
        type: DT_INT64
        type: DT_STRING
        type: DT_STRING
        type: DT_INT64
      }
    }
  }
  attr {
    key: "_class"
    value {
      list {
        s: "loc:@IteratorV2"
      }
    }
  }
  attr {
    key: "_output_shapes"
    value {
      list {
        shape {
        }
      }
    }
  }
  attr {
    key: "f"
    value {
      func {
        name: "Dataset_flat_map_<lambda>_37"
      }
    }
  }
  attr {
    key: "output_shapes"
    value {
      list {
        shape {
        }
        shape {
        }
      }
    }
  }
  attr {
    key: "output_types"
    value {
      list {
        type: DT_STRING
        type: DT_STRING
      }
    }
  }
}
node {
  name: "ShuffleDataset_1"
  op: "ShuffleDataset"
  input: "FlatMapDataset"
  input: "buffer_size_3"
  input: "seed_1"
  input: "seed2_1"
  device: "/device:CPU:0"
  attr {
    key: "_class"
    value {
      list {
        s: "loc:@IteratorV2"
      }
    }
  }
  attr {
    key: "_output_shapes"
    value {
      list {
        shape {
        }
      }
    }
  }
  attr {
    key: "output_shapes"
    value {
      list {
        shape {
        }
        shape {
        }
      }
    }
  }
  attr {
    key: "output_types"
    value {
      list {
        type: DT_STRING
        type: DT_STRING
      }
    }
  }
  attr {
    key: "reshuffle_each_iteration"
    value {
      b: true
    }
  }
}
node {
  name: "ParallelMapDataset"
  op: "ParallelMapDataset"
  input: "ShuffleDataset_1"
  input: "string_to_index/hash_table"
  input: "string_to_index/hash_table/Const"
  input: "string_to_index_1/hash_table"
  input: "string_to_index_1/hash_table/Const"
  input: "num_parallel_calls"
  device: "/device:CPU:0"
  attr {
    key: "Targuments"
    value {
      list {
        type: DT_RESOURCE
        type: DT_INT64
        type: DT_RESOURCE
        type: DT_INT64
      }
    }
  }
  attr {
    key: "_class"
    value {
      list {
        s: "loc:@IteratorV2"
      }
    }
  }
  attr {
    key: "_output_shapes"
    value {
      list {
        shape {
        }
      }
    }
  }
  attr {
    key: "f"
    value {
      func {
        name: "Dataset_map_<lambda>_55"
      }
    }
  }
  attr {
    key: "output_shapes"
    value {
      list {
        shape {
          dim {
            size: -1
          }
        }
        shape {
        }
        shape {
          dim {
            size: -1
          }
        }
        shape {
          dim {
            size: -1
          }
        }
        shape {
          dim {
            size: -1
          }
        }
        shape {
        }
        shape {
          dim {
            size: -1
          }
        }
      }
    }
  }
  attr {
    key: "output_types"
    value {
      list {
        type: DT_INT64
        type: DT_INT32
        type: DT_STRING
        type: DT_INT64
        type: DT_INT64
        type: DT_INT32
        type: DT_STRING
      }
    }
  }
  attr {
    key: "preserve_cardinality"
    value {
      b: false
    }
  }
  attr {
    key: "sloppy"
    value {
      b: false
    }
  }
  attr {
    key: "use_inter_op_parallelism"
    value {
      b: true
    }
  }
}
node {
  name: "FilterDataset"
  op: "FilterDataset"
  input: "ParallelMapDataset"
  device: "/device:CPU:0"
  attr {
    key: "Targuments"
    value {
      list {
      }
    }
  }
  attr {
    key: "_class"
    value {
      list {
        s: "loc:@IteratorV2"
      }
    }
  }
  attr {
    key: "_output_shapes"
    value {
      list {
        shape {
        }
      }
    }
  }
  attr {
    key: "output_shapes"
    value {
      list {
        shape {
          dim {
            size: -1
          }
        }
        shape {
        }
        shape {
          dim {
            size: -1
          }
        }
        shape {
          dim {
            size: -1
          }
        }
        shape {
          dim {
            size: -1
          }
        }
        shape {
        }
        shape {
          dim {
            size: -1
          }
        }
      }
    }
  }
  attr {
    key: "output_types"
    value {
      list {
        type: DT_INT64
        type: DT_INT32
        type: DT_STRING
        type: DT_INT64
        type: DT_INT64
        type: DT_INT32
        type: DT_STRING
      }
    }
  }
  attr {
    key: "predicate"
    value {
      func {
        name: "Dataset_filter__predicate_104"
      }
    }
  }
}
node {
  name: "ExperimentalGroupByWindowDataset"
  op: "ExperimentalGroupByWindowDataset"
  input: "FilterDataset"
  device: "/device:CPU:0"
  attr {
    key: "Tkey_func_other_arguments"
    value {
      list {
      }
    }
  }
  attr {
    key: "Treduce_func_other_arguments"
    value {
      list {
      }
    }
  }
  attr {
    key: "Twindow_size_func_other_arguments"
    value {
      list {
      }
    }
  }
  attr {
    key: "_class"
    value {
      list {
        s: "loc:@IteratorV2"
      }
    }
  }
  attr {
    key: "_output_shapes"
    value {
      list {
        shape {
        }
      }
    }
  }
  attr {
    key: "key_func"
    value {
      func {
        name: "tf_data_experimental_group_by_window_key_func_wrapper_128"
      }
    }
  }
  attr {
    key: "output_shapes"
    value {
      list {
        shape {
          dim {
            size: -1
          }
          dim {
            size: -1
          }
        }
        shape {
          dim {
            size: -1
          }
        }
        shape {
          dim {
            size: -1
          }
          dim {
            size: -1
          }
        }
        shape {
          dim {
            size: -1
          }
          dim {
            size: -1
          }
        }
        shape {
          dim {
            size: -1
          }
          dim {
            size: -1
          }
        }
        shape {
          dim {
            size: -1
          }
        }
        shape {
          dim {
            size: -1
          }
          dim {
            size: -1
          }
        }
      }
    }
  }
  attr {
    key: "output_types"
    value {
      list {
        type: DT_INT64
        type: DT_INT32
        type: DT_STRING
        type: DT_INT64
        type: DT_INT64
        type: DT_INT32
        type: DT_STRING
      }
    }
  }
  attr {
    key: "reduce_func"
    value {
      func {
        name: "tf_data_experimental_group_by_window__reduce_func_145"
      }
    }
  }
  attr {
    key: "window_size_func"
    value {
      func {
        name: "tf_data_experimental_group_by_window_window_size_func_wrapper_166"
      }
    }
  }
}
node {
  name: "RepeatDataset"
  op: "RepeatDataset"
  input: "ExperimentalGroupByWindowDataset"
  input: "count"
  device: "/device:CPU:0"
  attr {
    key: "_class"
    value {
      list {
        s: "loc:@IteratorV2"
      }
    }
  }
  attr {
    key: "_output_shapes"
    value {
      list {
        shape {
        }
      }
    }
  }
  attr {
    key: "output_shapes"
    value {
      list {
        shape {
          dim {
            size: -1
          }
          dim {
            size: -1
          }
        }
        shape {
          dim {
            size: -1
          }
        }
        shape {
          dim {
            size: -1
          }
          dim {
            size: -1
          }
        }
        shape {
          dim {
            size: -1
          }
          dim {
            size: -1
          }
        }
        shape {
          dim {
            size: -1
          }
          dim {
            size: -1
          }
        }
        shape {
          dim {
            size: -1
          }
        }
        shape {
          dim {
            size: -1
          }
          dim {
            size: -1
          }
        }
      }
    }
  }
  attr {
    key: "output_types"
    value {
      list {
        type: DT_INT64
        type: DT_INT32
        type: DT_STRING
        type: DT_INT64
        type: DT_INT64
        type: DT_INT32
        type: DT_STRING
      }
    }
  }
}
node {
  name: "PrefetchDataset"
  op: "PrefetchDataset"
  input: "RepeatDataset"
  input: "buffer_size_4"
  device: "/device:CPU:0"
  attr {
    key: "_class"
    value {
      list {
        s: "loc:@IteratorV2"
      }
    }
  }
  attr {
    key: "_output_shapes"
    value {
      list {
        shape {
        }
      }
    }
  }
  attr {
    key: "output_shapes"
    value {
      list {
        shape {
          dim {
            size: -1
          }
          dim {
            size: -1
          }
        }
        shape {
          dim {
            size: -1
          }
        }
        shape {
          dim {
            size: -1
          }
          dim {
            size: -1
          }
        }
        shape {
          dim {
            size: -1
          }
          dim {
            size: -1
          }
        }
        shape {
          dim {
            size: -1
          }
          dim {
            size: -1
          }
        }
        shape {
          dim {
            size: -1
          }
        }
        shape {
          dim {
            size: -1
          }
          dim {
            size: -1
          }
        }
      }
    }
  }
  attr {
    key: "output_types"
    value {
      list {
        type: DT_INT64
        type: DT_INT32
        type: DT_STRING
        type: DT_INT64
        type: DT_INT64
        type: DT_INT32
        type: DT_STRING
      }
    }
  }
}
node {
  name: "OptimizeDataset"
  op: "OptimizeDataset"
  input: "PrefetchDataset"
  input: "optimizations"
  device: "/device:CPU:0"
  attr {
    key: "_class"
    value {
      list {
        s: "loc:@IteratorV2"
      }
    }
  }
  attr {
    key: "_output_shapes"
    value {
      list {
        shape {
        }
      }
    }
  }
  attr {
    key: "output_shapes"
    value {
      list {
        shape {
          dim {
            size: -1
          }
          dim {
            size: -1
          }
        }
        shape {
          dim {
            size: -1
          }
        }
        shape {
          dim {
            size: -1
          }
          dim {
            size: -1
          }
        }
        shape {
          dim {
            size: -1
          }
          dim {
            size: -1
          }
        }
        shape {
          dim {
            size: -1
          }
          dim {
            size: -1
          }
        }
        shape {
          dim {
            size: -1
          }
        }
        shape {
          dim {
            size: -1
          }
          dim {
            size: -1
          }
        }
      }
    }
  }
  attr {
    key: "output_types"
    value {
      list {
        type: DT_INT64
        type: DT_INT32
        type: DT_STRING
        type: DT_INT64
        type: DT_INT64
        type: DT_INT32
        type: DT_STRING
      }
    }
  }
}
node {
  name: "ModelDataset"
  op: "ModelDataset"
  input: "OptimizeDataset"
  device: "/device:CPU:0"
  attr {
    key: "_class"
    value {
      list {
        s: "loc:@IteratorV2"
      }
    }
  }
  attr {
    key: "_output_shapes"
    value {
      list {
        shape {
        }
      }
    }
  }
  attr {
    key: "output_shapes"
    value {
      list {
        shape {
          dim {
            size: -1
          }
          dim {
            size: -1
          }
        }
        shape {
          dim {
            size: -1
          }
        }
        shape {
          dim {
            size: -1
          }
          dim {
            size: -1
          }
        }
        shape {
          dim {
            size: -1
          }
          dim {
            size: -1
          }
        }
        shape {
          dim {
            size: -1
          }
          dim {
            size: -1
          }
        }
        shape {
          dim {
            size: -1
          }
        }
        shape {
          dim {
            size: -1
          }
          dim {
            size: -1
          }
        }
      }
    }
  }
  attr {
    key: "output_types"
    value {
      list {
        type: DT_INT64
        type: DT_INT32
        type: DT_STRING
        type: DT_INT64
        type: DT_INT64
        type: DT_INT32
        type: DT_STRING
      }
    }
  }
}
node {
  name: "MakeIterator"
  op: "MakeIterator"
  input: "ModelDataset"
  input: "IteratorV2"
  device: "/device:CPU:0"
  attr {
    key: "_class"
    value {
      list {
        s: "loc:@IteratorV2"
      }
    }
  }
}
node {
  name: "IteratorToStringHandle"
  op: "IteratorToStringHandle"
  input: "IteratorV2"
  device: "/device:CPU:0"
  attr {
    key: "_output_shapes"
    value {
      list {
        shape {
        }
      }
    }
  }
}
node {
  name: "IteratorGetNext"
  op: "IteratorGetNext"
  input: "IteratorV2"
  device: "/device:CPU:0"
  attr {
    key: "_output_shapes"
    value {
      list {
        shape {
          dim {
            size: -1
          }
          dim {
            size: -1
          }
        }
        shape {
          dim {
            size: -1
          }
        }
        shape {
          dim {
            size: -1
          }
          dim {
            size: -1
          }
        }
        shape {
          dim {
            size: -1
          }
          dim {
            size: -1
          }
        }
        shape {
          dim {
            size: -1
          }
          dim {
            size: -1
          }
        }
        shape {
          dim {
            size: -1
          }
        }
        shape {
          dim {
            size: -1
          }
          dim {
            size: -1
          }
        }
      }
    }
  }
  attr {
    key: "output_shapes"
    value {
      list {
        shape {
          dim {
            size: -1
          }
          dim {
            size: -1
          }
        }
        shape {
          dim {
            size: -1
          }
        }
        shape {
          dim {
            size: -1
          }
          dim {
            size: -1
          }
        }
        shape {
          dim {
            size: -1
          }
          dim {
            size: -1
          }
        }
        shape {
          dim {
            size: -1
          }
          dim {
            size: -1
          }
        }
        shape {
          dim {
            size: -1
          }
        }
        shape {
          dim {
            size: -1
          }
          dim {
            size: -1
          }
        }
      }
    }
  }
  attr {
    key: "output_types"
    value {
      list {
        type: DT_INT64
        type: DT_INT32
        type: DT_STRING
        type: DT_INT64
        type: DT_INT64
        type: DT_INT32
        type: DT_STRING
      }
    }
  }
}
node {
  name: "split_inputs/Const"
  op: "Const"
  attr {
    key: "_output_shapes"
    value {
      list {
        shape {
        }
      }
    }
  }
  attr {
    key: "dtype"
    value {
      type: DT_INT32
    }
  }
  attr {
    key: "value"
    value {
      tensor {
        dtype: DT_INT32
        tensor_shape {
        }
        int_val: 1
      }
    }
  }
}
node {
  name: "split_inputs/split/split_dim"
  op: "Const"
  attr {
    key: "_output_shapes"
    value {
      list {
        shape {
        }
      }
    }
  }
  attr {
    key: "dtype"
    value {
      type: DT_INT32
    }
  }
  attr {
    key: "value"
    value {
      tensor {
        dtype: DT_INT32
        tensor_shape {
        }
        int_val: 0
      }
    }
  }
}
node {
  name: "split_inputs/split"
  op: "Split"
  input: "split_inputs/split/split_dim"
  input: "IteratorGetNext:1"
  attr {
    key: "T"
    value {
      type: DT_INT32
    }
  }
  attr {
    key: "_output_shapes"
    value {
      list {
        shape {
          dim {
            size: -1
          }
        }
      }
    }
  }
  attr {
    key: "num_split"
    value {
      i: 1
    }
  }
}
node {
  name: "split_inputs/Const_1"
  op: "Const"
  attr {
    key: "_output_shapes"
    value {
      list {
        shape {
        }
      }
    }
  }
  attr {
    key: "dtype"
    value {
      type: DT_INT32
    }
  }
  attr {
    key: "value"
    value {
      tensor {
        dtype: DT_INT32
        tensor_shape {
        }
        int_val: 1
      }
    }
  }
}
node {
  name: "split_inputs/split_1/split_dim"
  op: "Const"
  attr {
    key: "_output_shapes"
    value {
      list {
        shape {
        }
      }
    }
  }
  attr {
    key: "dtype"
    value {
      type: DT_INT32
    }
  }
  attr {
    key: "value"
    value {
      tensor {
        dtype: DT_INT32
        tensor_shape {
        }
        int_val: 0
      }
    }
  }
}
node {
  name: "split_inputs/split_1"
  op: "Split"
  input: "split_inputs/split_1/split_dim"
  input: "IteratorGetNext:2"
  attr {
    key: "T"
    value {
      type: DT_STRING
    }
  }
  attr {
    key: "_output_shapes"
    value {
      list {
        shape {
          dim {
            size: -1
          }
          dim {
            size: -1
          }
        }
      }
    }
  }
  attr {
    key: "num_split"
    value {
      i: 1
    }
  }
}
node {
  name: "split_inputs/Const_2"
  op: "Const"
  attr {
    key: "_output_shapes"
    value {
      list {
        shape {
        }
      }
    }
  }
  attr {
    key: "dtype"
    value {
      type: DT_INT32
    }
  }
  attr {
    key: "value"
    value {
      tensor {
        dtype: DT_INT32
        tensor_shape {
        }
        int_val: 1
      }
    }
  }
}
node {
  name: "split_inputs/split_2/split_dim"
  op: "Const"
  attr {
    key: "_output_shapes"
    value {
      list {
        shape {
        }
      }
    }
  }
  attr {
    key: "dtype"
    value {
      type: DT_INT32
    }
  }
  attr {
    key: "value"
    value {
      tensor {
        dtype: DT_INT32
        tensor_shape {
        }
        int_val: 0
      }
    }
  }
}
node {
  name: "split_inputs/split_2"
  op: "Split"
  input: "split_inputs/split_2/split_dim"
  input: "IteratorGetNext"
  attr {
    key: "T"
    value {
      type: DT_INT64
    }
  }
  attr {
    key: "_output_shapes"
    value {
      list {
        shape {
          dim {
            size: -1
          }
          dim {
            size: -1
          }
        }
      }
    }
  }
  attr {
    key: "num_split"
    value {
      i: 1
    }
  }
}
node {
  name: "split_inputs_1/Const"
  op: "Const"
  attr {
    key: "_output_shapes"
    value {
      list {
        shape {
        }
      }
    }
  }
  attr {
    key: "dtype"
    value {
      type: DT_INT32
    }
  }
  attr {
    key: "value"
    value {
      tensor {
        dtype: DT_INT32
        tensor_shape {
        }
        int_val: 1
      }
    }
  }
}
node {
  name: "split_inputs_1/split/split_dim"
  op: "Const"
  attr {
    key: "_output_shapes"
    value {
      list {
        shape {
        }
      }
    }
  }
  attr {
    key: "dtype"
    value {
      type: DT_INT32
    }
  }
  attr {
    key: "value"
    value {
      tensor {
        dtype: DT_INT32
        tensor_shape {
        }
        int_val: 0
      }
    }
  }
}
node {
  name: "split_inputs_1/split"
  op: "Split"
  input: "split_inputs_1/split/split_dim"
  input: "IteratorGetNext:5"
  attr {
    key: "T"
    value {
      type: DT_INT32
    }
  }
  attr {
    key: "_output_shapes"
    value {
      list {
        shape {
          dim {
            size: -1
          }
        }
      }
    }
  }
  attr {
    key: "num_split"
    value {
      i: 1
    }
  }
}
node {
  name: "split_inputs_1/Const_1"
  op: "Const"
  attr {
    key: "_output_shapes"
    value {
      list {
        shape {
        }
      }
    }
  }
  attr {
    key: "dtype"
    value {
      type: DT_INT32
    }
  }
  attr {
    key: "value"
    value {
      tensor {
        dtype: DT_INT32
        tensor_shape {
        }
        int_val: 1
      }
    }
  }
}
node {
  name: "split_inputs_1/split_1/split_dim"
  op: "Const"
  attr {
    key: "_output_shapes"
    value {
      list {
        shape {
        }
      }
    }
  }
  attr {
    key: "dtype"
    value {
      type: DT_INT32
    }
  }
  attr {
    key: "value"
    value {
      tensor {
        dtype: DT_INT32
        tensor_shape {
        }
        int_val: 0
      }
    }
  }
}
node {
  name: "split_inputs_1/split_1"
  op: "Split"
  input: "split_inputs_1/split_1/split_dim"
  input: "IteratorGetNext:6"
  attr {
    key: "T"
    value {
      type: DT_STRING
    }
  }
  attr {
    key: "_output_shapes"
    value {
      list {
        shape {
          dim {
            size: -1
          }
          dim {
            size: -1
          }
        }
      }
    }
  }
  attr {
    key: "num_split"
    value {
      i: 1
    }
  }
}
node {
  name: "split_inputs_1/Const_2"
  op: "Const"
  attr {
    key: "_output_shapes"
    value {
      list {
        shape {
        }
      }
    }
  }
  attr {
    key: "dtype"
    value {
      type: DT_INT32
    }
  }
  attr {
    key: "value"
    value {
      tensor {
        dtype: DT_INT32
        tensor_shape {
        }
        int_val: 1
      }
    }
  }
}
node {
  name: "split_inputs_1/split_2/split_dim"
  op: "Const"
  attr {
    key: "_output_shapes"
    value {
      list {
        shape {
        }
      }
    }
  }
  attr {
    key: "dtype"
    value {
      type: DT_INT32
    }
  }
  attr {
    key: "value"
    value {
      tensor {
        dtype: DT_INT32
        tensor_shape {
        }
        int_val: 0
      }
    }
  }
}
node {
  name: "split_inputs_1/split_2"
  op: "Split"
  input: "split_inputs_1/split_2/split_dim"
  input: "IteratorGetNext:3"
  attr {
    key: "T"
    value {
      type: DT_INT64
    }
  }
  attr {
    key: "_output_shapes"
    value {
      list {
        shape {
          dim {
            size: -1
          }
          dim {
            size: -1
          }
        }
      }
    }
  }
  attr {
    key: "num_split"
    value {
      i: 1
    }
  }
}
node {
  name: "split_inputs_1/Const_3"
  op: "Const"
  attr {
    key: "_output_shapes"
    value {
      list {
        shape {
        }
      }
    }
  }
  attr {
    key: "dtype"
    value {
      type: DT_INT32
    }
  }
  attr {
    key: "value"
    value {
      tensor {
        dtype: DT_INT32
        tensor_shape {
        }
        int_val: 1
      }
    }
  }
}
node {
  name: "split_inputs_1/split_3/split_dim"
  op: "Const"
  attr {
    key: "_output_shapes"
    value {
      list {
        shape {
        }
      }
    }
  }
  attr {
    key: "dtype"
    value {
      type: DT_INT32
    }
  }
  attr {
    key: "value"
    value {
      tensor {
        dtype: DT_INT32
        tensor_shape {
        }
        int_val: 0
      }
    }
  }
}
node {
  name: "split_inputs_1/split_3"
  op: "Split"
  input: "split_inputs_1/split_3/split_dim"
  input: "IteratorGetNext:4"
  attr {
    key: "T"
    value {
      type: DT_INT64
    }
  }
  attr {
    key: "_output_shapes"
    value {
      list {
        shape {
          dim {
            size: -1
          }
          dim {
            size: -1
          }
        }
      }
    }
  }
  attr {
    key: "num_split"
    value {
      i: 1
    }
  }
}
node {
  name: "seq2seq/encoder/w_embs/Initializer/random_uniform/shape"
  op: "Const"
  attr {
    key: "_class"
    value {
      list {
        s: "loc:@seq2seq/encoder/w_embs"
      }
    }
  }
  attr {
    key: "_output_shapes"
    value {
      list {
        shape {
          dim {
            size: 2
          }
        }
      }
    }
  }
  attr {
    key: "dtype"
    value {
      type: DT_INT32
    }
  }
  attr {
    key: "value"
    value {
      tensor {
        dtype: DT_INT32
        tensor_shape {
          dim {
            size: 2
          }
        }
        tensor_content: "\276`\000\000\000\002\000\000"
      }
    }
  }
}
node {
  name: "seq2seq/encoder/w_embs/Initializer/random_uniform/min"
  op: "Const"
  attr {
    key: "_class"
    value {
      list {
        s: "loc:@seq2seq/encoder/w_embs"
      }
    }
  }
  attr {
    key: "_output_shapes"
    value {
      list {
        shape {
        }
      }
    }
  }
  attr {
    key: "dtype"
    value {
      type: DT_FLOAT
    }
  }
  attr {
    key: "value"
    value {
      tensor {
        dtype: DT_FLOAT
        tensor_shape {
        }
        float_val: -0.01540650986135006
      }
    }
  }
}
node {
  name: "seq2seq/encoder/w_embs/Initializer/random_uniform/max"
  op: "Const"
  attr {
    key: "_class"
    value {
      list {
        s: "loc:@seq2seq/encoder/w_embs"
      }
    }
  }
  attr {
    key: "_output_shapes"
    value {
      list {
        shape {
        }
      }
    }
  }
  attr {
    key: "dtype"
    value {
      type: DT_FLOAT
    }
  }
  attr {
    key: "value"
    value {
      tensor {
        dtype: DT_FLOAT
        tensor_shape {
        }
        float_val: 0.01540650986135006
      }
    }
  }
}
node {
  name: "seq2seq/encoder/w_embs/Initializer/random_uniform/RandomUniform"
  op: "RandomUniform"
  input: "seq2seq/encoder/w_embs/Initializer/random_uniform/shape"
  attr {
    key: "T"
    value {
      type: DT_INT32
    }
  }
  attr {
    key: "_class"
    value {
      list {
        s: "loc:@seq2seq/encoder/w_embs"
      }
    }
  }
  attr {
    key: "_output_shapes"
    value {
      list {
        shape {
          dim {
            size: 24766
          }
          dim {
            size: 512
          }
        }
      }
    }
  }
  attr {
    key: "dtype"
    value {
      type: DT_FLOAT
    }
  }
  attr {
    key: "seed"
    value {
      i: 0
    }
  }
  attr {
    key: "seed2"
    value {
      i: 0
    }
  }
}
node {
  name: "seq2seq/encoder/w_embs/Initializer/random_uniform/sub"
  op: "Sub"
  input: "seq2seq/encoder/w_embs/Initializer/random_uniform/max"
  input: "seq2seq/encoder/w_embs/Initializer/random_uniform/min"
  attr {
    key: "T"
    value {
      type: DT_FLOAT
    }
  }
  attr {
    key: "_class"
    value {
      list {
        s: "loc:@seq2seq/encoder/w_embs"
      }
    }
  }
  attr {
    key: "_output_shapes"
    value {
      list {
        shape {
        }
      }
    }
  }
}
node {
  name: "seq2seq/encoder/w_embs/Initializer/random_uniform/mul"
  op: "Mul"
  input: "seq2seq/encoder/w_embs/Initializer/random_uniform/RandomUniform"
  input: "seq2seq/encoder/w_embs/Initializer/random_uniform/sub"
  attr {
    key: "T"
    value {
      type: DT_FLOAT
    }
  }
  attr {
    key: "_class"
    value {
      list {
        s: "loc:@seq2seq/encoder/w_embs"
      }
    }
  }
  attr {
    key: "_output_shapes"
    value {
      list {
        shape {
          dim {
            size: 24766
          }
          dim {
            size: 512
          }
        }
      }
    }
  }
}
node {
  name: "seq2seq/encoder/w_embs/Initializer/random_uniform"
  op: "Add"
  input: "seq2seq/encoder/w_embs/Initializer/random_uniform/mul"
  input: "seq2seq/encoder/w_embs/Initializer/random_uniform/min"
  attr {
    key: "T"
    value {
      type: DT_FLOAT
    }
  }
  attr {
    key: "_class"
    value {
      list {
        s: "loc:@seq2seq/encoder/w_embs"
      }
    }
  }
  attr {
    key: "_output_shapes"
    value {
      list {
        shape {
          dim {
            size: 24766
          }
          dim {
            size: 512
          }
        }
      }
    }
  }
}
node {
  name: "seq2seq/encoder/w_embs"
  op: "VariableV2"
  device: "/device:GPU:0"
  attr {
    key: "_class"
    value {
      list {
        s: "loc:@seq2seq/encoder/w_embs"
      }
    }
  }
  attr {
    key: "_output_shapes"
    value {
      list {
        shape {
          dim {
            size: 24766
          }
          dim {
            size: 512
          }
        }
      }
    }
  }
  attr {
    key: "container"
    value {
      s: ""
    }
  }
  attr {
    key: "dtype"
    value {
      type: DT_FLOAT
    }
  }
  attr {
    key: "shape"
    value {
      shape {
        dim {
          size: 24766
        }
        dim {
          size: 512
        }
      }
    }
  }
  attr {
    key: "shared_name"
    value {
      s: ""
    }
  }
}
node {
  name: "seq2seq/encoder/w_embs/Assign"
  op: "Assign"
  input: "seq2seq/encoder/w_embs"
  input: "seq2seq/encoder/w_embs/Initializer/random_uniform"
  device: "/device:GPU:0"
  attr {
    key: "T"
    value {
      type: DT_FLOAT
    }
  }
  attr {
    key: "_class"
    value {
      list {
        s: "loc:@seq2seq/encoder/w_embs"
      }
    }
  }
  attr {
    key: "_output_shapes"
    value {
      list {
        shape {
          dim {
            size: 24766
          }
          dim {
            size: 512
          }
        }
      }
    }
  }
  attr {
    key: "use_locking"
    value {
      b: true
    }
  }
  attr {
    key: "validate_shape"
    value {
      b: true
    }
  }
}
node {
  name: "seq2seq/encoder/w_embs/read"
  op: "Identity"
  input: "seq2seq/encoder/w_embs"
  device: "/device:GPU:0"
  attr {
    key: "T"
    value {
      type: DT_FLOAT
    }
  }
  attr {
    key: "_class"
    value {
      list {
        s: "loc:@seq2seq/encoder/w_embs"
      }
    }
  }
  attr {
    key: "_output_shapes"
    value {
      list {
        shape {
          dim {
            size: 24766
          }
          dim {
            size: 512
          }
        }
      }
    }
  }
}
node {
  name: "seq2seq/decoder/w_embs/Initializer/random_uniform/shape"
  op: "Const"
  attr {
    key: "_class"
    value {
      list {
        s: "loc:@seq2seq/decoder/w_embs"
      }
    }
  }
  attr {
    key: "_output_shapes"
    value {
      list {
        shape {
          dim {
            size: 2
          }
        }
      }
    }
  }
  attr {
    key: "dtype"
    value {
      type: DT_INT32
    }
  }
  attr {
    key: "value"
    value {
      tensor {
        dtype: DT_INT32
        tensor_shape {
          dim {
            size: 2
          }
        }
        tensor_content: "\014\246\000\000\000\002\000\000"
      }
    }
  }
}
node {
  name: "seq2seq/decoder/w_embs/Initializer/random_uniform/min"
  op: "Const"
  attr {
    key: "_class"
    value {
      list {
        s: "loc:@seq2seq/decoder/w_embs"
      }
    }
  }
  attr {
    key: "_output_shapes"
    value {
      list {
        shape {
        }
      }
    }
  }
  attr {
    key: "dtype"
    value {
      type: DT_FLOAT
    }
  }
  attr {
    key: "value"
    value {
      tensor {
        dtype: DT_FLOAT
        tensor_shape {
        }
        float_val: -0.011809742078185081
      }
    }
  }
}
node {
  name: "seq2seq/decoder/w_embs/Initializer/random_uniform/max"
  op: "Const"
  attr {
    key: "_class"
    value {
      list {
        s: "loc:@seq2seq/decoder/w_embs"
      }
    }
  }
  attr {
    key: "_output_shapes"
    value {
      list {
        shape {
        }
      }
    }
  }
  attr {
    key: "dtype"
    value {
      type: DT_FLOAT
    }
  }
  attr {
    key: "value"
    value {
      tensor {
        dtype: DT_FLOAT
        tensor_shape {
        }
        float_val: 0.011809742078185081
      }
    }
  }
}
node {
  name: "seq2seq/decoder/w_embs/Initializer/random_uniform/RandomUniform"
  op: "RandomUniform"
  input: "seq2seq/decoder/w_embs/Initializer/random_uniform/shape"
  attr {
    key: "T"
    value {
      type: DT_INT32
    }
  }
  attr {
    key: "_class"
    value {
      list {
        s: "loc:@seq2seq/decoder/w_embs"
      }
    }
  }
  attr {
    key: "_output_shapes"
    value {
      list {
        shape {
          dim {
            size: 42508
          }
          dim {
            size: 512
          }
        }
      }
    }
  }
  attr {
    key: "dtype"
    value {
      type: DT_FLOAT
    }
  }
  attr {
    key: "seed"
    value {
      i: 0
    }
  }
  attr {
    key: "seed2"
    value {
      i: 0
    }
  }
}
node {
  name: "seq2seq/decoder/w_embs/Initializer/random_uniform/sub"
  op: "Sub"
  input: "seq2seq/decoder/w_embs/Initializer/random_uniform/max"
  input: "seq2seq/decoder/w_embs/Initializer/random_uniform/min"
  attr {
    key: "T"
    value {
      type: DT_FLOAT
    }
  }
  attr {
    key: "_class"
    value {
      list {
        s: "loc:@seq2seq/decoder/w_embs"
      }
    }
  }
  attr {
    key: "_output_shapes"
    value {
      list {
        shape {
        }
      }
    }
  }
}
node {
  name: "seq2seq/decoder/w_embs/Initializer/random_uniform/mul"
  op: "Mul"
  input: "seq2seq/decoder/w_embs/Initializer/random_uniform/RandomUniform"
  input: "seq2seq/decoder/w_embs/Initializer/random_uniform/sub"
  attr {
    key: "T"
    value {
      type: DT_FLOAT
    }
  }
  attr {
    key: "_class"
    value {
      list {
        s: "loc:@seq2seq/decoder/w_embs"
      }
    }
  }
  attr {
    key: "_output_shapes"
    value {
      list {
        shape {
          dim {
            size: 42508
          }
          dim {
            size: 512
          }
        }
      }
    }
  }
}
node {
  name: "seq2seq/decoder/w_embs/Initializer/random_uniform"
  op: "Add"
  input: "seq2seq/decoder/w_embs/Initializer/random_uniform/mul"
  input: "seq2seq/decoder/w_embs/Initializer/random_uniform/min"
  attr {
    key: "T"
    value {
      type: DT_FLOAT
    }
  }
  attr {
    key: "_class"
    value {
      list {
        s: "loc:@seq2seq/decoder/w_embs"
      }
    }
  }
  attr {
    key: "_output_shapes"
    value {
      list {
        shape {
          dim {
            size: 42508
          }
          dim {
            size: 512
          }
        }
      }
    }
  }
}
node {
  name: "seq2seq/decoder/w_embs"
  op: "VariableV2"
  device: "/device:GPU:0"
  attr {
    key: "_class"
    value {
      list {
        s: "loc:@seq2seq/decoder/w_embs"
      }
    }
  }
  attr {
    key: "_output_shapes"
    value {
      list {
        shape {
          dim {
            size: 42508
          }
          dim {
            size: 512
          }
        }
      }
    }
  }
  attr {
    key: "container"
    value {
      s: ""
    }
  }
  attr {
    key: "dtype"
    value {
      type: DT_FLOAT
    }
  }
  attr {
    key: "shape"
    value {
      shape {
        dim {
          size: 42508
        }
        dim {
          size: 512
        }
      }
    }
  }
  attr {
    key: "shared_name"
    value {
      s: ""
    }
  }
}
node {
  name: "seq2seq/decoder/w_embs/Assign"
  op: "Assign"
  input: "seq2seq/decoder/w_embs"
  input: "seq2seq/decoder/w_embs/Initializer/random_uniform"
  device: "/device:GPU:0"
  attr {
    key: "T"
    value {
      type: DT_FLOAT
    }
  }
  attr {
    key: "_class"
    value {
      list {
        s: "loc:@seq2seq/decoder/w_embs"
      }
    }
  }
  attr {
    key: "_output_shapes"
    value {
      list {
        shape {
          dim {
            size: 42508
          }
          dim {
            size: 512
          }
        }
      }
    }
  }
  attr {
    key: "use_locking"
    value {
      b: true
    }
  }
  attr {
    key: "validate_shape"
    value {
      b: true
    }
  }
}
node {
  name: "seq2seq/decoder/w_embs/read"
  op: "Identity"
  input: "seq2seq/decoder/w_embs"
  device: "/device:GPU:0"
  attr {
    key: "T"
    value {
      type: DT_FLOAT
    }
  }
  attr {
    key: "_class"
    value {
      list {
        s: "loc:@seq2seq/decoder/w_embs"
      }
    }
  }
  attr {
    key: "_output_shapes"
    value {
      list {
        shape {
          dim {
            size: 42508
          }
          dim {
            size: 512
          }
        }
      }
    }
  }
}
node {
  name: "seq2seq/embedding_lookup/axis"
  op: "Const"
  device: "/device:GPU:0"
  attr {
    key: "_class"
    value {
      list {
        s: "loc:@seq2seq/encoder/w_embs"
      }
    }
  }
  attr {
    key: "_output_shapes"
    value {
      list {
        shape {
        }
      }
    }
  }
  attr {
    key: "dtype"
    value {
      type: DT_INT32
    }
  }
  attr {
    key: "value"
    value {
      tensor {
        dtype: DT_INT32
        tensor_shape {
        }
        int_val: 0
      }
    }
  }
}
node {
  name: "seq2seq/embedding_lookup"
  op: "GatherV2"
  input: "seq2seq/encoder/w_embs/read"
  input: "split_inputs/split_2"
  input: "seq2seq/embedding_lookup/axis"
  device: "/device:GPU:0"
  attr {
    key: "Taxis"
    value {
      type: DT_INT32
    }
  }
  attr {
    key: "Tindices"
    value {
      type: DT_INT64
    }
  }
  attr {
    key: "Tparams"
    value {
      type: DT_FLOAT
    }
  }
  attr {
    key: "_class"
    value {
      list {
        s: "loc:@seq2seq/encoder/w_embs"
      }
    }
  }
  attr {
    key: "_output_shapes"
    value {
      list {
        shape {
          dim {
            size: -1
          }
          dim {
            size: -1
          }
          dim {
            size: 512
          }
        }
      }
    }
  }
}
node {
  name: "seq2seq/embedding_lookup/Identity"
  op: "Identity"
  input: "seq2seq/embedding_lookup"
  device: "/device:GPU:0"
  attr {
    key: "T"
    value {
      type: DT_FLOAT
    }
  }
  attr {
    key: "_output_shapes"
    value {
      list {
        shape {
          dim {
            size: -1
          }
          dim {
            size: -1
          }
          dim {
            size: 512
          }
        }
      }
    }
  }
}
node {
  name: "seq2seq/encoder_1/DropoutWrapperInit/Const"
  op: "Const"
  device: "/device:GPU:0"
  attr {
    key: "_output_shapes"
    value {
      list {
        shape {
        }
      }
    }
  }
  attr {
    key: "dtype"
    value {
      type: DT_FLOAT
    }
  }
  attr {
    key: "value"
    value {
      tensor {
        dtype: DT_FLOAT
        tensor_shape {
        }
        float_val: 1.0
      }
    }
  }
}
node {
  name: "seq2seq/encoder_1/DropoutWrapperInit/Const_1"
  op: "Const"
  device: "/device:GPU:0"
  attr {
    key: "_output_shapes"
    value {
      list {
        shape {
        }
      }
    }
  }
  attr {
    key: "dtype"
    value {
      type: DT_FLOAT
    }
  }
  attr {
    key: "value"
    value {
      tensor {
        dtype: DT_FLOAT
        tensor_shape {
        }
        float_val: 1.0
      }
    }
  }
}
node {
  name: "seq2seq/encoder_1/DropoutWrapperInit/Const_2"
  op: "Const"
  device: "/device:GPU:0"
  attr {
    key: "_output_shapes"
    value {
      list {
        shape {
        }
      }
    }
  }
  attr {
    key: "dtype"
    value {
      type: DT_FLOAT
    }
  }
  attr {
    key: "value"
    value {
      tensor {
        dtype: DT_FLOAT
        tensor_shape {
        }
        float_val: 0.699999988079071
      }
    }
  }
}
node {
  name: "seq2seq/encoder_1/DropoutWrapperInit_1/Const"
  op: "Const"
  device: "/device:GPU:0"
  attr {
    key: "_output_shapes"
    value {
      list {
        shape {
        }
      }
    }
  }
  attr {
    key: "dtype"
    value {
      type: DT_FLOAT
    }
  }
  attr {
    key: "value"
    value {
      tensor {
        dtype: DT_FLOAT
        tensor_shape {
        }
        float_val: 1.0
      }
    }
  }
}
node {
  name: "seq2seq/encoder_1/DropoutWrapperInit_1/Const_1"
  op: "Const"
  device: "/device:GPU:0"
  attr {
    key: "_output_shapes"
    value {
      list {
        shape {
        }
      }
    }
  }
  attr {
    key: "dtype"
    value {
      type: DT_FLOAT
    }
  }
  attr {
    key: "value"
    value {
      tensor {
        dtype: DT_FLOAT
        tensor_shape {
        }
        float_val: 1.0
      }
    }
  }
}
node {
  name: "seq2seq/encoder_1/DropoutWrapperInit_1/Const_2"
  op: "Const"
  device: "/device:GPU:0"
  attr {
    key: "_output_shapes"
    value {
      list {
        shape {
        }
      }
    }
  }
  attr {
    key: "dtype"
    value {
      type: DT_FLOAT
    }
  }
  attr {
    key: "value"
    value {
      tensor {
        dtype: DT_FLOAT
        tensor_shape {
        }
        float_val: 0.699999988079071
      }
    }
  }
}
node {
  name: "seq2seq/encoder_1/rnn/Rank"
  op: "Const"
  device: "/device:GPU:0"
  attr {
    key: "_output_shapes"
    value {
      list {
        shape {
        }
      }
    }
  }
  attr {
    key: "dtype"
    value {
      type: DT_INT32
    }
  }
  attr {
    key: "value"
    value {
      tensor {
        dtype: DT_INT32
        tensor_shape {
        }
        int_val: 3
      }
    }
  }
}
node {
  name: "seq2seq/encoder_1/rnn/range/start"
  op: "Const"
  device: "/device:GPU:0"
  attr {
    key: "_output_shapes"
    value {
      list {
        shape {
        }
      }
    }
  }
  attr {
    key: "dtype"
    value {
      type: DT_INT32
    }
  }
  attr {
    key: "value"
    value {
      tensor {
        dtype: DT_INT32
        tensor_shape {
        }
        int_val: 2
      }
    }
  }
}
node {
  name: "seq2seq/encoder_1/rnn/range/delta"
  op: "Const"
  device: "/device:GPU:0"
  attr {
    key: "_output_shapes"
    value {
      list {
        shape {
        }
      }
    }
  }
  attr {
    key: "dtype"
    value {
      type: DT_INT32
    }
  }
  attr {
    key: "value"
    value {
      tensor {
        dtype: DT_INT32
        tensor_shape {
        }
        int_val: 1
      }
    }
  }
}
node {
  name: "seq2seq/encoder_1/rnn/range"
  op: "Range"
  input: "seq2seq/encoder_1/rnn/range/start"
  input: "seq2seq/encoder_1/rnn/Rank"
  input: "seq2seq/encoder_1/rnn/range/delta"
  device: "/device:GPU:0"
  attr {
    key: "Tidx"
    value {
      type: DT_INT32
    }
  }
  attr {
    key: "_output_shapes"
    value {
      list {
        shape {
          dim {
            size: 1
          }
        }
      }
    }
  }
}
node {
  name: "seq2seq/encoder_1/rnn/concat/values_0"
  op: "Const"
  device: "/device:GPU:0"
  attr {
    key: "_output_shapes"
    value {
      list {
        shape {
          dim {
            size: 2
          }
        }
      }
    }
  }
  attr {
    key: "dtype"
    value {
      type: DT_INT32
    }
  }
  attr {
    key: "value"
    value {
      tensor {
        dtype: DT_INT32
        tensor_shape {
          dim {
            size: 2
          }
        }
        tensor_content: "\001\000\000\000\000\000\000\000"
      }
    }
  }
}
node {
  name: "seq2seq/encoder_1/rnn/concat/axis"
  op: "Const"
  device: "/device:GPU:0"
  attr {
    key: "_output_shapes"
    value {
      list {
        shape {
        }
      }
    }
  }
  attr {
    key: "dtype"
    value {
      type: DT_INT32
    }
  }
  attr {
    key: "value"
    value {
      tensor {
        dtype: DT_INT32
        tensor_shape {
        }
        int_val: 0
      }
    }
  }
}
node {
  name: "seq2seq/encoder_1/rnn/concat"
  op: "ConcatV2"
  input: "seq2seq/encoder_1/rnn/concat/values_0"
  input: "seq2seq/encoder_1/rnn/range"
  input: "seq2seq/encoder_1/rnn/concat/axis"
  device: "/device:GPU:0"
  attr {
    key: "N"
    value {
      i: 2
    }
  }
  attr {
    key: "T"
    value {
      type: DT_INT32
    }
  }
  attr {
    key: "Tidx"
    value {
      type: DT_INT32
    }
  }
  attr {
    key: "_output_shapes"
    value {
      list {
        shape {
          dim {
            size: 3
          }
        }
      }
    }
  }
}
node {
  name: "seq2seq/encoder_1/rnn/transpose"
  op: "Transpose"
  input: "seq2seq/embedding_lookup/Identity"
  input: "seq2seq/encoder_1/rnn/concat"
  device: "/device:GPU:0"
  attr {
    key: "T"
    value {
      type: DT_FLOAT
    }
  }
  attr {
    key: "Tperm"
    value {
      type: DT_INT32
    }
  }
  attr {
    key: "_output_shapes"
    value {
      list {
        shape {
          dim {
            size: -1
          }
          dim {
            size: -1
          }
          dim {
            size: 512
          }
        }
      }
    }
  }
}
node {
  name: "seq2seq/encoder_1/rnn/sequence_length"
  op: "Identity"
  input: "split_inputs/split"
  device: "/device:GPU:0"
  attr {
    key: "T"
    value {
      type: DT_INT32
    }
  }
  attr {
    key: "_output_shapes"
    value {
      list {
        shape {
          dim {
            size: -1
          }
        }
      }
    }
  }
}
node {
  name: "seq2seq/encoder_1/rnn/Shape"
  op: "Shape"
  input: "seq2seq/encoder_1/rnn/transpose"
  device: "/device:GPU:0"
  attr {
    key: "T"
    value {
      type: DT_FLOAT
    }
  }
  attr {
    key: "_output_shapes"
    value {
      list {
        shape {
          dim {
            size: 3
          }
        }
      }
    }
  }
  attr {
    key: "out_type"
    value {
      type: DT_INT32
    }
  }
}
node {
  name: "seq2seq/encoder_1/rnn/strided_slice/stack"
  op: "Const"
  device: "/device:GPU:0"
  attr {
    key: "_output_shapes"
    value {
      list {
        shape {
          dim {
            size: 1
          }
        }
      }
    }
  }
  attr {
    key: "dtype"
    value {
      type: DT_INT32
    }
  }
  attr {
    key: "value"
    value {
      tensor {
        dtype: DT_INT32
        tensor_shape {
          dim {
            size: 1
          }
        }
        int_val: 1
      }
    }
  }
}
node {
  name: "seq2seq/encoder_1/rnn/strided_slice/stack_1"
  op: "Const"
  device: "/device:GPU:0"
  attr {
    key: "_output_shapes"
    value {
      list {
        shape {
          dim {
            size: 1
          }
        }
      }
    }
  }
  attr {
    key: "dtype"
    value {
      type: DT_INT32
    }
  }
  attr {
    key: "value"
    value {
      tensor {
        dtype: DT_INT32
        tensor_shape {
          dim {
            size: 1
          }
        }
        int_val: 2
      }
    }
  }
}
node {
  name: "seq2seq/encoder_1/rnn/strided_slice/stack_2"
  op: "Const"
  device: "/device:GPU:0"
  attr {
    key: "_output_shapes"
    value {
      list {
        shape {
          dim {
            size: 1
          }
        }
      }
    }
  }
  attr {
    key: "dtype"
    value {
      type: DT_INT32
    }
  }
  attr {
    key: "value"
    value {
      tensor {
        dtype: DT_INT32
        tensor_shape {
          dim {
            size: 1
          }
        }
        int_val: 1
      }
    }
  }
}
node {
  name: "seq2seq/encoder_1/rnn/strided_slice"
  op: "StridedSlice"
  input: "seq2seq/encoder_1/rnn/Shape"
  input: "seq2seq/encoder_1/rnn/strided_slice/stack"
  input: "seq2seq/encoder_1/rnn/strided_slice/stack_1"
  input: "seq2seq/encoder_1/rnn/strided_slice/stack_2"
  device: "/device:GPU:0"
  attr {
    key: "Index"
    value {
      type: DT_INT32
    }
  }
  attr {
    key: "T"
    value {
      type: DT_INT32
    }
  }
  attr {
    key: "_output_shapes"
    value {
      list {
        shape {
        }
      }
    }
  }
  attr {
    key: "begin_mask"
    value {
      i: 0
    }
  }
  attr {
    key: "ellipsis_mask"
    value {
      i: 0
    }
  }
  attr {
    key: "end_mask"
    value {
      i: 0
    }
  }
  attr {
    key: "new_axis_mask"
    value {
      i: 0
    }
  }
  attr {
    key: "shrink_axis_mask"
    value {
      i: 1
    }
  }
}
node {
  name: "seq2seq/encoder_1/rnn/MultiRNNCellZeroState/DropoutWrapperZeroState/LSTMCellZeroState/ExpandDims/dim"
  op: "Const"
  device: "/device:GPU:0"
  attr {
    key: "_output_shapes"
    value {
      list {
        shape {
        }
      }
    }
  }
  attr {
    key: "dtype"
    value {
      type: DT_INT32
    }
  }
  attr {
    key: "value"
    value {
      tensor {
        dtype: DT_INT32
        tensor_shape {
        }
        int_val: 0
      }
    }
  }
}
node {
  name: "seq2seq/encoder_1/rnn/MultiRNNCellZeroState/DropoutWrapperZeroState/LSTMCellZeroState/ExpandDims"
  op: "ExpandDims"
  input: "seq2seq/encoder_1/rnn/strided_slice"
  input: "seq2seq/encoder_1/rnn/MultiRNNCellZeroState/DropoutWrapperZeroState/LSTMCellZeroState/ExpandDims/dim"
  device: "/device:GPU:0"
  attr {
    key: "T"
    value {
      type: DT_INT32
    }
  }
  attr {
    key: "Tdim"
    value {
      type: DT_INT32
    }
  }
  attr {
    key: "_output_shapes"
    value {
      list {
        shape {
          dim {
            size: 1
          }
        }
      }
    }
  }
}
node {
  name: "seq2seq/encoder_1/rnn/MultiRNNCellZeroState/DropoutWrapperZeroState/LSTMCellZeroState/Const"
  op: "Const"
  device: "/device:GPU:0"
  attr {
    key: "_output_shapes"
    value {
      list {
        shape {
          dim {
            size: 1
          }
        }
      }
    }
  }
  attr {
    key: "dtype"
    value {
      type: DT_INT32
    }
  }
  attr {
    key: "value"
    value {
      tensor {
        dtype: DT_INT32
        tensor_shape {
          dim {
            size: 1
          }
        }
        int_val: 512
      }
    }
  }
}
node {
  name: "seq2seq/encoder_1/rnn/MultiRNNCellZeroState/DropoutWrapperZeroState/LSTMCellZeroState/concat/axis"
  op: "Const"
  device: "/device:GPU:0"
  attr {
    key: "_output_shapes"
    value {
      list {
        shape {
        }
      }
    }
  }
  attr {
    key: "dtype"
    value {
      type: DT_INT32
    }
  }
  attr {
    key: "value"
    value {
      tensor {
        dtype: DT_INT32
        tensor_shape {
        }
        int_val: 0
      }
    }
  }
}
node {
  name: "seq2seq/encoder_1/rnn/MultiRNNCellZeroState/DropoutWrapperZeroState/LSTMCellZeroState/concat"
  op: "ConcatV2"
  input: "seq2seq/encoder_1/rnn/MultiRNNCellZeroState/DropoutWrapperZeroState/LSTMCellZeroState/ExpandDims"
  input: "seq2seq/encoder_1/rnn/MultiRNNCellZeroState/DropoutWrapperZeroState/LSTMCellZeroState/Const"
  input: "seq2seq/encoder_1/rnn/MultiRNNCellZeroState/DropoutWrapperZeroState/LSTMCellZeroState/concat/axis"
  device: "/device:GPU:0"
  attr {
    key: "N"
    value {
      i: 2
    }
  }
  attr {
    key: "T"
    value {
      type: DT_INT32
    }
  }
  attr {
    key: "Tidx"
    value {
      type: DT_INT32
    }
  }
  attr {
    key: "_output_shapes"
    value {
      list {
        shape {
          dim {
            size: 2
          }
        }
      }
    }
  }
}
node {
  name: "seq2seq/encoder_1/rnn/MultiRNNCellZeroState/DropoutWrapperZeroState/LSTMCellZeroState/zeros/Const"
  op: "Const"
  device: "/device:GPU:0"
  attr {
    key: "_output_shapes"
    value {
      list {
        shape {
        }
      }
    }
  }
  attr {
    key: "dtype"
    value {
      type: DT_FLOAT
    }
  }
  attr {
    key: "value"
    value {
      tensor {
        dtype: DT_FLOAT
        tensor_shape {
        }
        float_val: 0.0
      }
    }
  }
}
node {
  name: "seq2seq/encoder_1/rnn/MultiRNNCellZeroState/DropoutWrapperZeroState/LSTMCellZeroState/zeros"
  op: "Fill"
  input: "seq2seq/encoder_1/rnn/MultiRNNCellZeroState/DropoutWrapperZeroState/LSTMCellZeroState/concat"
  input: "seq2seq/encoder_1/rnn/MultiRNNCellZeroState/DropoutWrapperZeroState/LSTMCellZeroState/zeros/Const"
  device: "/device:GPU:0"
  attr {
    key: "T"
    value {
      type: DT_FLOAT
    }
  }
  attr {
    key: "_output_shapes"
    value {
      list {
        shape {
          dim {
            size: -1
          }
          dim {
            size: 512
          }
        }
      }
    }
  }
  attr {
    key: "index_type"
    value {
      type: DT_INT32
    }
  }
}
node {
  name: "seq2seq/encoder_1/rnn/MultiRNNCellZeroState/DropoutWrapperZeroState/LSTMCellZeroState/ExpandDims_1/dim"
  op: "Const"
  device: "/device:GPU:0"
  attr {
    key: "_output_shapes"
    value {
      list {
        shape {
        }
      }
    }
  }
  attr {
    key: "dtype"
    value {
      type: DT_INT32
    }
  }
  attr {
    key: "value"
    value {
      tensor {
        dtype: DT_INT32
        tensor_shape {
        }
        int_val: 0
      }
    }
  }
}
node {
  name: "seq2seq/encoder_1/rnn/MultiRNNCellZeroState/DropoutWrapperZeroState/LSTMCellZeroState/ExpandDims_1"
  op: "ExpandDims"
  input: "seq2seq/encoder_1/rnn/strided_slice"
  input: "seq2seq/encoder_1/rnn/MultiRNNCellZeroState/DropoutWrapperZeroState/LSTMCellZeroState/ExpandDims_1/dim"
  device: "/device:GPU:0"
  attr {
    key: "T"
    value {
      type: DT_INT32
    }
  }
  attr {
    key: "Tdim"
    value {
      type: DT_INT32
    }
  }
  attr {
    key: "_output_shapes"
    value {
      list {
        shape {
          dim {
            size: 1
          }
        }
      }
    }
  }
}
node {
  name: "seq2seq/encoder_1/rnn/MultiRNNCellZeroState/DropoutWrapperZeroState/LSTMCellZeroState/Const_1"
  op: "Const"
  device: "/device:GPU:0"
  attr {
    key: "_output_shapes"
    value {
      list {
        shape {
          dim {
            size: 1
          }
        }
      }
    }
  }
  attr {
    key: "dtype"
    value {
      type: DT_INT32
    }
  }
  attr {
    key: "value"
    value {
      tensor {
        dtype: DT_INT32
        tensor_shape {
          dim {
            size: 1
          }
        }
        int_val: 512
      }
    }
  }
}
node {
  name: "seq2seq/encoder_1/rnn/MultiRNNCellZeroState/DropoutWrapperZeroState/LSTMCellZeroState/ExpandDims_2/dim"
  op: "Const"
  device: "/device:GPU:0"
  attr {
    key: "_output_shapes"
    value {
      list {
        shape {
        }
      }
    }
  }
  attr {
    key: "dtype"
    value {
      type: DT_INT32
    }
  }
  attr {
    key: "value"
    value {
      tensor {
        dtype: DT_INT32
        tensor_shape {
        }
        int_val: 0
      }
    }
  }
}
node {
  name: "seq2seq/encoder_1/rnn/MultiRNNCellZeroState/DropoutWrapperZeroState/LSTMCellZeroState/ExpandDims_2"
  op: "ExpandDims"
  input: "seq2seq/encoder_1/rnn/strided_slice"
  input: "seq2seq/encoder_1/rnn/MultiRNNCellZeroState/DropoutWrapperZeroState/LSTMCellZeroState/ExpandDims_2/dim"
  device: "/device:GPU:0"
  attr {
    key: "T"
    value {
      type: DT_INT32
    }
  }
  attr {
    key: "Tdim"
    value {
      type: DT_INT32
    }
  }
  attr {
    key: "_output_shapes"
    value {
      list {
        shape {
          dim {
            size: 1
          }
        }
      }
    }
  }
}
node {
  name: "seq2seq/encoder_1/rnn/MultiRNNCellZeroState/DropoutWrapperZeroState/LSTMCellZeroState/Const_2"
  op: "Const"
  device: "/device:GPU:0"
  attr {
    key: "_output_shapes"
    value {
      list {
        shape {
          dim {
            size: 1
          }
        }
      }
    }
  }
  attr {
    key: "dtype"
    value {
      type: DT_INT32
    }
  }
  attr {
    key: "value"
    value {
      tensor {
        dtype: DT_INT32
        tensor_shape {
          dim {
            size: 1
          }
        }
        int_val: 512
      }
    }
  }
}
node {
  name: "seq2seq/encoder_1/rnn/MultiRNNCellZeroState/DropoutWrapperZeroState/LSTMCellZeroState/concat_1/axis"
  op: "Const"
  device: "/device:GPU:0"
  attr {
    key: "_output_shapes"
    value {
      list {
        shape {
        }
      }
    }
  }
  attr {
    key: "dtype"
    value {
      type: DT_INT32
    }
  }
  attr {
    key: "value"
    value {
      tensor {
        dtype: DT_INT32
        tensor_shape {
        }
        int_val: 0
      }
    }
  }
}
node {
  name: "seq2seq/encoder_1/rnn/MultiRNNCellZeroState/DropoutWrapperZeroState/LSTMCellZeroState/concat_1"
  op: "ConcatV2"
  input: "seq2seq/encoder_1/rnn/MultiRNNCellZeroState/DropoutWrapperZeroState/LSTMCellZeroState/ExpandDims_2"
  input: "seq2seq/encoder_1/rnn/MultiRNNCellZeroState/DropoutWrapperZeroState/LSTMCellZeroState/Const_2"
  input: "seq2seq/encoder_1/rnn/MultiRNNCellZeroState/DropoutWrapperZeroState/LSTMCellZeroState/concat_1/axis"
  device: "/device:GPU:0"
  attr {
    key: "N"
    value {
      i: 2
    }
  }
  attr {
    key: "T"
    value {
      type: DT_INT32
    }
  }
  attr {
    key: "Tidx"
    value {
      type: DT_INT32
    }
  }
  attr {
    key: "_output_shapes"
    value {
      list {
        shape {
          dim {
            size: 2
          }
        }
      }
    }
  }
}
node {
  name: "seq2seq/encoder_1/rnn/MultiRNNCellZeroState/DropoutWrapperZeroState/LSTMCellZeroState/zeros_1/Const"
  op: "Const"
  device: "/device:GPU:0"
  attr {
    key: "_output_shapes"
    value {
      list {
        shape {
        }
      }
    }
  }
  attr {
    key: "dtype"
    value {
      type: DT_FLOAT
    }
  }
  attr {
    key: "value"
    value {
      tensor {
        dtype: DT_FLOAT
        tensor_shape {
        }
        float_val: 0.0
      }
    }
  }
}
node {
  name: "seq2seq/encoder_1/rnn/MultiRNNCellZeroState/DropoutWrapperZeroState/LSTMCellZeroState/zeros_1"
  op: "Fill"
  input: "seq2seq/encoder_1/rnn/MultiRNNCellZeroState/DropoutWrapperZeroState/LSTMCellZeroState/concat_1"
  input: "seq2seq/encoder_1/rnn/MultiRNNCellZeroState/DropoutWrapperZeroState/LSTMCellZeroState/zeros_1/Const"
  device: "/device:GPU:0"
  attr {
    key: "T"
    value {
      type: DT_FLOAT
    }
  }
  attr {
    key: "_output_shapes"
    value {
      list {
        shape {
          dim {
            size: -1
          }
          dim {
            size: 512
          }
        }
      }
    }
  }
  attr {
    key: "index_type"
    value {
      type: DT_INT32
    }
  }
}
node {
  name: "seq2seq/encoder_1/rnn/MultiRNNCellZeroState/DropoutWrapperZeroState/LSTMCellZeroState/ExpandDims_3/dim"
  op: "Const"
  device: "/device:GPU:0"
  attr {
    key: "_output_shapes"
    value {
      list {
        shape {
        }
      }
    }
  }
  attr {
    key: "dtype"
    value {
      type: DT_INT32
    }
  }
  attr {
    key: "value"
    value {
      tensor {
        dtype: DT_INT32
        tensor_shape {
        }
        int_val: 0
      }
    }
  }
}
node {
  name: "seq2seq/encoder_1/rnn/MultiRNNCellZeroState/DropoutWrapperZeroState/LSTMCellZeroState/ExpandDims_3"
  op: "ExpandDims"
  input: "seq2seq/encoder_1/rnn/strided_slice"
  input: "seq2seq/encoder_1/rnn/MultiRNNCellZeroState/DropoutWrapperZeroState/LSTMCellZeroState/ExpandDims_3/dim"
  device: "/device:GPU:0"
  attr {
    key: "T"
    value {
      type: DT_INT32
    }
  }
  attr {
    key: "Tdim"
    value {
      type: DT_INT32
    }
  }
  attr {
    key: "_output_shapes"
    value {
      list {
        shape {
          dim {
            size: 1
          }
        }
      }
    }
  }
}
node {
  name: "seq2seq/encoder_1/rnn/MultiRNNCellZeroState/DropoutWrapperZeroState/LSTMCellZeroState/Const_3"
  op: "Const"
  device: "/device:GPU:0"
  attr {
    key: "_output_shapes"
    value {
      list {
        shape {
          dim {
            size: 1
          }
        }
      }
    }
  }
  attr {
    key: "dtype"
    value {
      type: DT_INT32
    }
  }
  attr {
    key: "value"
    value {
      tensor {
        dtype: DT_INT32
        tensor_shape {
          dim {
            size: 1
          }
        }
        int_val: 512
      }
    }
  }
}
node {
  name: "seq2seq/encoder_1/rnn/MultiRNNCellZeroState/DropoutWrapperZeroState_1/LSTMCellZeroState/ExpandDims/dim"
  op: "Const"
  device: "/device:GPU:0"
  attr {
    key: "_output_shapes"
    value {
      list {
        shape {
        }
      }
    }
  }
  attr {
    key: "dtype"
    value {
      type: DT_INT32
    }
  }
  attr {
    key: "value"
    value {
      tensor {
        dtype: DT_INT32
        tensor_shape {
        }
        int_val: 0
      }
    }
  }
}
node {
  name: "seq2seq/encoder_1/rnn/MultiRNNCellZeroState/DropoutWrapperZeroState_1/LSTMCellZeroState/ExpandDims"
  op: "ExpandDims"
  input: "seq2seq/encoder_1/rnn/strided_slice"
  input: "seq2seq/encoder_1/rnn/MultiRNNCellZeroState/DropoutWrapperZeroState_1/LSTMCellZeroState/ExpandDims/dim"
  device: "/device:GPU:0"
  attr {
    key: "T"
    value {
      type: DT_INT32
    }
  }
  attr {
    key: "Tdim"
    value {
      type: DT_INT32
    }
  }
  attr {
    key: "_output_shapes"
    value {
      list {
        shape {
          dim {
            size: 1
          }
        }
      }
    }
  }
}
node {
  name: "seq2seq/encoder_1/rnn/MultiRNNCellZeroState/DropoutWrapperZeroState_1/LSTMCellZeroState/Const"
  op: "Const"
  device: "/device:GPU:0"
  attr {
    key: "_output_shapes"
    value {
      list {
        shape {
          dim {
            size: 1
          }
        }
      }
    }
  }
  attr {
    key: "dtype"
    value {
      type: DT_INT32
    }
  }
  attr {
    key: "value"
    value {
      tensor {
        dtype: DT_INT32
        tensor_shape {
          dim {
            size: 1
          }
        }
        int_val: 512
      }
    }
  }
}
node {
  name: "seq2seq/encoder_1/rnn/MultiRNNCellZeroState/DropoutWrapperZeroState_1/LSTMCellZeroState/concat/axis"
  op: "Const"
  device: "/device:GPU:0"
  attr {
    key: "_output_shapes"
    value {
      list {
        shape {
        }
      }
    }
  }
  attr {
    key: "dtype"
    value {
      type: DT_INT32
    }
  }
  attr {
    key: "value"
    value {
      tensor {
        dtype: DT_INT32
        tensor_shape {
        }
        int_val: 0
      }
    }
  }
}
node {
  name: "seq2seq/encoder_1/rnn/MultiRNNCellZeroState/DropoutWrapperZeroState_1/LSTMCellZeroState/concat"
  op: "ConcatV2"
  input: "seq2seq/encoder_1/rnn/MultiRNNCellZeroState/DropoutWrapperZeroState_1/LSTMCellZeroState/ExpandDims"
  input: "seq2seq/encoder_1/rnn/MultiRNNCellZeroState/DropoutWrapperZeroState_1/LSTMCellZeroState/Const"
  input: "seq2seq/encoder_1/rnn/MultiRNNCellZeroState/DropoutWrapperZeroState_1/LSTMCellZeroState/concat/axis"
  device: "/device:GPU:0"
  attr {
    key: "N"
    value {
      i: 2
    }
  }
  attr {
    key: "T"
    value {
      type: DT_INT32
    }
  }
  attr {
    key: "Tidx"
    value {
      type: DT_INT32
    }
  }
  attr {
    key: "_output_shapes"
    value {
      list {
        shape {
          dim {
            size: 2
          }
        }
      }
    }
  }
}
node {
  name: "seq2seq/encoder_1/rnn/MultiRNNCellZeroState/DropoutWrapperZeroState_1/LSTMCellZeroState/zeros/Const"
  op: "Const"
  device: "/device:GPU:0"
  attr {
    key: "_output_shapes"
    value {
      list {
        shape {
        }
      }
    }
  }
  attr {
    key: "dtype"
    value {
      type: DT_FLOAT
    }
  }
  attr {
    key: "value"
    value {
      tensor {
        dtype: DT_FLOAT
        tensor_shape {
        }
        float_val: 0.0
      }
    }
  }
}
node {
  name: "seq2seq/encoder_1/rnn/MultiRNNCellZeroState/DropoutWrapperZeroState_1/LSTMCellZeroState/zeros"
  op: "Fill"
  input: "seq2seq/encoder_1/rnn/MultiRNNCellZeroState/DropoutWrapperZeroState_1/LSTMCellZeroState/concat"
  input: "seq2seq/encoder_1/rnn/MultiRNNCellZeroState/DropoutWrapperZeroState_1/LSTMCellZeroState/zeros/Const"
  device: "/device:GPU:0"
  attr {
    key: "T"
    value {
      type: DT_FLOAT
    }
  }
  attr {
    key: "_output_shapes"
    value {
      list {
        shape {
          dim {
            size: -1
          }
          dim {
            size: 512
          }
        }
      }
    }
  }
  attr {
    key: "index_type"
    value {
      type: DT_INT32
    }
  }
}
node {
  name: "seq2seq/encoder_1/rnn/MultiRNNCellZeroState/DropoutWrapperZeroState_1/LSTMCellZeroState/ExpandDims_1/dim"
  op: "Const"
  device: "/device:GPU:0"
  attr {
    key: "_output_shapes"
    value {
      list {
        shape {
        }
      }
    }
  }
  attr {
    key: "dtype"
    value {
      type: DT_INT32
    }
  }
  attr {
    key: "value"
    value {
      tensor {
        dtype: DT_INT32
        tensor_shape {
        }
        int_val: 0
      }
    }
  }
}
node {
  name: "seq2seq/encoder_1/rnn/MultiRNNCellZeroState/DropoutWrapperZeroState_1/LSTMCellZeroState/ExpandDims_1"
  op: "ExpandDims"
  input: "seq2seq/encoder_1/rnn/strided_slice"
  input: "seq2seq/encoder_1/rnn/MultiRNNCellZeroState/DropoutWrapperZeroState_1/LSTMCellZeroState/ExpandDims_1/dim"
  device: "/device:GPU:0"
  attr {
    key: "T"
    value {
      type: DT_INT32
    }
  }
  attr {
    key: "Tdim"
    value {
      type: DT_INT32
    }
  }
  attr {
    key: "_output_shapes"
    value {
      list {
        shape {
          dim {
            size: 1
          }
        }
      }
    }
  }
}
node {
  name: "seq2seq/encoder_1/rnn/MultiRNNCellZeroState/DropoutWrapperZeroState_1/LSTMCellZeroState/Const_1"
  op: "Const"
  device: "/device:GPU:0"
  attr {
    key: "_output_shapes"
    value {
      list {
        shape {
          dim {
            size: 1
          }
        }
      }
    }
  }
  attr {
    key: "dtype"
    value {
      type: DT_INT32
    }
  }
  attr {
    key: "value"
    value {
      tensor {
        dtype: DT_INT32
        tensor_shape {
          dim {
            size: 1
          }
        }
        int_val: 512
      }
    }
  }
}
node {
  name: "seq2seq/encoder_1/rnn/MultiRNNCellZeroState/DropoutWrapperZeroState_1/LSTMCellZeroState/ExpandDims_2/dim"
  op: "Const"
  device: "/device:GPU:0"
  attr {
    key: "_output_shapes"
    value {
      list {
        shape {
        }
      }
    }
  }
  attr {
    key: "dtype"
    value {
      type: DT_INT32
    }
  }
  attr {
    key: "value"
    value {
      tensor {
        dtype: DT_INT32
        tensor_shape {
        }
        int_val: 0
      }
    }
  }
}
node {
  name: "seq2seq/encoder_1/rnn/MultiRNNCellZeroState/DropoutWrapperZeroState_1/LSTMCellZeroState/ExpandDims_2"
  op: "ExpandDims"
  input: "seq2seq/encoder_1/rnn/strided_slice"
  input: "seq2seq/encoder_1/rnn/MultiRNNCellZeroState/DropoutWrapperZeroState_1/LSTMCellZeroState/ExpandDims_2/dim"
  device: "/device:GPU:0"
  attr {
    key: "T"
    value {
      type: DT_INT32
    }
  }
  attr {
    key: "Tdim"
    value {
      type: DT_INT32
    }
  }
  attr {
    key: "_output_shapes"
    value {
      list {
        shape {
          dim {
            size: 1
          }
        }
      }
    }
  }
}
node {
  name: "seq2seq/encoder_1/rnn/MultiRNNCellZeroState/DropoutWrapperZeroState_1/LSTMCellZeroState/Const_2"
  op: "Const"
  device: "/device:GPU:0"
  attr {
    key: "_output_shapes"
    value {
      list {
        shape {
          dim {
            size: 1
          }
        }
      }
    }
  }
  attr {
    key: "dtype"
    value {
      type: DT_INT32
    }
  }
  attr {
    key: "value"
    value {
      tensor {
        dtype: DT_INT32
        tensor_shape {
          dim {
            size: 1
          }
        }
        int_val: 512
      }
    }
  }
}
node {
  name: "seq2seq/encoder_1/rnn/MultiRNNCellZeroState/DropoutWrapperZeroState_1/LSTMCellZeroState/concat_1/axis"
  op: "Const"
  device: "/device:GPU:0"
  attr {
    key: "_output_shapes"
    value {
      list {
        shape {
        }
      }
    }
  }
  attr {
    key: "dtype"
    value {
      type: DT_INT32
    }
  }
  attr {
    key: "value"
    value {
      tensor {
        dtype: DT_INT32
        tensor_shape {
        }
        int_val: 0
      }
    }
  }
}
node {
  name: "seq2seq/encoder_1/rnn/MultiRNNCellZeroState/DropoutWrapperZeroState_1/LSTMCellZeroState/concat_1"
  op: "ConcatV2"
  input: "seq2seq/encoder_1/rnn/MultiRNNCellZeroState/DropoutWrapperZeroState_1/LSTMCellZeroState/ExpandDims_2"
  input: "seq2seq/encoder_1/rnn/MultiRNNCellZeroState/DropoutWrapperZeroState_1/LSTMCellZeroState/Const_2"
  input: "seq2seq/encoder_1/rnn/MultiRNNCellZeroState/DropoutWrapperZeroState_1/LSTMCellZeroState/concat_1/axis"
  device: "/device:GPU:0"
  attr {
    key: "N"
    value {
      i: 2
    }
  }
  attr {
    key: "T"
    value {
      type: DT_INT32
    }
  }
  attr {
    key: "Tidx"
    value {
      type: DT_INT32
    }
  }
  attr {
    key: "_output_shapes"
    value {
      list {
        shape {
          dim {
            size: 2
          }
        }
      }
    }
  }
}
node {
  name: "seq2seq/encoder_1/rnn/MultiRNNCellZeroState/DropoutWrapperZeroState_1/LSTMCellZeroState/zeros_1/Const"
  op: "Const"
  device: "/device:GPU:0"
  attr {
    key: "_output_shapes"
    value {
      list {
        shape {
        }
      }
    }
  }
  attr {
    key: "dtype"
    value {
      type: DT_FLOAT
    }
  }
  attr {
    key: "value"
    value {
      tensor {
        dtype: DT_FLOAT
        tensor_shape {
        }
        float_val: 0.0
      }
    }
  }
}
node {
  name: "seq2seq/encoder_1/rnn/MultiRNNCellZeroState/DropoutWrapperZeroState_1/LSTMCellZeroState/zeros_1"
  op: "Fill"
  input: "seq2seq/encoder_1/rnn/MultiRNNCellZeroState/DropoutWrapperZeroState_1/LSTMCellZeroState/concat_1"
  input: "seq2seq/encoder_1/rnn/MultiRNNCellZeroState/DropoutWrapperZeroState_1/LSTMCellZeroState/zeros_1/Const"
  device: "/device:GPU:0"
  attr {
    key: "T"
    value {
      type: DT_FLOAT
    }
  }
  attr {
    key: "_output_shapes"
    value {
      list {
        shape {
          dim {
            size: -1
          }
          dim {
            size: 512
          }
        }
      }
    }
  }
  attr {
    key: "index_type"
    value {
      type: DT_INT32
    }
  }
}
node {
  name: "seq2seq/encoder_1/rnn/MultiRNNCellZeroState/DropoutWrapperZeroState_1/LSTMCellZeroState/ExpandDims_3/dim"
  op: "Const"
  device: "/device:GPU:0"
  attr {
    key: "_output_shapes"
    value {
      list {
        shape {
        }
      }
    }
  }
  attr {
    key: "dtype"
    value {
      type: DT_INT32
    }
  }
  attr {
    key: "value"
    value {
      tensor {
        dtype: DT_INT32
        tensor_shape {
        }
        int_val: 0
      }
    }
  }
}
node {
  name: "seq2seq/encoder_1/rnn/MultiRNNCellZeroState/DropoutWrapperZeroState_1/LSTMCellZeroState/ExpandDims_3"
  op: "ExpandDims"
  input: "seq2seq/encoder_1/rnn/strided_slice"
  input: "seq2seq/encoder_1/rnn/MultiRNNCellZeroState/DropoutWrapperZeroState_1/LSTMCellZeroState/ExpandDims_3/dim"
  device: "/device:GPU:0"
  attr {
    key: "T"
    value {
      type: DT_INT32
    }
  }
  attr {
    key: "Tdim"
    value {
      type: DT_INT32
    }
  }
  attr {
    key: "_output_shapes"
    value {
      list {
        shape {
          dim {
            size: 1
          }
        }
      }
    }
  }
}
node {
  name: "seq2seq/encoder_1/rnn/MultiRNNCellZeroState/DropoutWrapperZeroState_1/LSTMCellZeroState/Const_3"
  op: "Const"
  device: "/device:GPU:0"
  attr {
    key: "_output_shapes"
    value {
      list {
        shape {
          dim {
            size: 1
          }
        }
      }
    }
  }
  attr {
    key: "dtype"
    value {
      type: DT_INT32
    }
  }
  attr {
    key: "value"
    value {
      tensor {
        dtype: DT_INT32
        tensor_shape {
          dim {
            size: 1
          }
        }
        int_val: 512
      }
    }
  }
}
node {
  name: "seq2seq/encoder_1/rnn/Shape_1"
  op: "Shape"
  input: "seq2seq/encoder_1/rnn/sequence_length"
  device: "/device:GPU:0"
  attr {
    key: "T"
    value {
      type: DT_INT32
    }
  }
  attr {
    key: "_output_shapes"
    value {
      list {
        shape {
          dim {
            size: 1
          }
        }
      }
    }
  }
  attr {
    key: "out_type"
    value {
      type: DT_INT32
    }
  }
}
node {
  name: "seq2seq/encoder_1/rnn/stack"
  op: "Pack"
  input: "seq2seq/encoder_1/rnn/strided_slice"
  device: "/device:GPU:0"
  attr {
    key: "N"
    value {
      i: 1
    }
  }
  attr {
    key: "T"
    value {
      type: DT_INT32
    }
  }
  attr {
    key: "_output_shapes"
    value {
      list {
        shape {
          dim {
            size: 1
          }
        }
      }
    }
  }
  attr {
    key: "axis"
    value {
      i: 0
    }
  }
}
node {
  name: "seq2seq/encoder_1/rnn/Equal"
  op: "Equal"
  input: "seq2seq/encoder_1/rnn/Shape_1"
  input: "seq2seq/encoder_1/rnn/stack"
  device: "/device:GPU:0"
  attr {
    key: "T"
    value {
      type: DT_INT32
    }
  }
  attr {
    key: "_output_shapes"
    value {
      list {
        shape {
          dim {
            size: 1
          }
        }
      }
    }
  }
}
node {
  name: "seq2seq/encoder_1/rnn/Const"
  op: "Const"
  device: "/device:GPU:0"
  attr {
    key: "_output_shapes"
    value {
      list {
        shape {
          dim {
            size: 1
          }
        }
      }
    }
  }
  attr {
    key: "dtype"
    value {
      type: DT_INT32
    }
  }
  attr {
    key: "value"
    value {
      tensor {
        dtype: DT_INT32
        tensor_shape {
          dim {
            size: 1
          }
        }
        int_val: 0
      }
    }
  }
}
node {
  name: "seq2seq/encoder_1/rnn/All"
  op: "All"
  input: "seq2seq/encoder_1/rnn/Equal"
  input: "seq2seq/encoder_1/rnn/Const"
  device: "/device:GPU:0"
  attr {
    key: "Tidx"
    value {
      type: DT_INT32
    }
  }
  attr {
    key: "_output_shapes"
    value {
      list {
        shape {
        }
      }
    }
  }
  attr {
    key: "keep_dims"
    value {
      b: false
    }
  }
}
node {
  name: "seq2seq/encoder_1/rnn/Assert/Const"
  op: "Const"
  device: "/device:GPU:0"
  attr {
    key: "_output_shapes"
    value {
      list {
        shape {
        }
      }
    }
  }
  attr {
    key: "dtype"
    value {
      type: DT_STRING
    }
  }
  attr {
    key: "value"
    value {
      tensor {
        dtype: DT_STRING
        tensor_shape {
        }
        string_val: "Expected shape for Tensor seq2seq/encoder_1/rnn/sequence_length:0 is "
      }
    }
  }
}
node {
  name: "seq2seq/encoder_1/rnn/Assert/Const_1"
  op: "Const"
  device: "/device:GPU:0"
  attr {
    key: "_output_shapes"
    value {
      list {
        shape {
        }
      }
    }
  }
  attr {
    key: "dtype"
    value {
      type: DT_STRING
    }
  }
  attr {
    key: "value"
    value {
      tensor {
        dtype: DT_STRING
        tensor_shape {
        }
        string_val: " but saw shape: "
      }
    }
  }
}
node {
  name: "seq2seq/encoder_1/rnn/Assert/Assert/data_0"
  op: "Const"
  device: "/device:GPU:0"
  attr {
    key: "_output_shapes"
    value {
      list {
        shape {
        }
      }
    }
  }
  attr {
    key: "dtype"
    value {
      type: DT_STRING
    }
  }
  attr {
    key: "value"
    value {
      tensor {
        dtype: DT_STRING
        tensor_shape {
        }
        string_val: "Expected shape for Tensor seq2seq/encoder_1/rnn/sequence_length:0 is "
      }
    }
  }
}
node {
  name: "seq2seq/encoder_1/rnn/Assert/Assert/data_2"
  op: "Const"
  device: "/device:GPU:0"
  attr {
    key: "_output_shapes"
    value {
      list {
        shape {
        }
      }
    }
  }
  attr {
    key: "dtype"
    value {
      type: DT_STRING
    }
  }
  attr {
    key: "value"
    value {
      tensor {
        dtype: DT_STRING
        tensor_shape {
        }
        string_val: " but saw shape: "
      }
    }
  }
}
node {
  name: "seq2seq/encoder_1/rnn/Assert/Assert"
  op: "Assert"
  input: "seq2seq/encoder_1/rnn/All"
  input: "seq2seq/encoder_1/rnn/Assert/Assert/data_0"
  input: "seq2seq/encoder_1/rnn/stack"
  input: "seq2seq/encoder_1/rnn/Assert/Assert/data_2"
  input: "seq2seq/encoder_1/rnn/Shape_1"
  device: "/device:GPU:0"
  attr {
    key: "T"
    value {
      list {
        type: DT_STRING
        type: DT_INT32
        type: DT_STRING
        type: DT_INT32
      }
    }
  }
  attr {
    key: "summarize"
    value {
      i: 3
    }
  }
}
node {
  name: "seq2seq/encoder_1/rnn/CheckSeqLen"
  op: "Identity"
  input: "seq2seq/encoder_1/rnn/sequence_length"
  input: "^seq2seq/encoder_1/rnn/Assert/Assert"
  device: "/device:GPU:0"
  attr {
    key: "T"
    value {
      type: DT_INT32
    }
  }
  attr {
    key: "_output_shapes"
    value {
      list {
        shape {
          dim {
            size: -1
          }
        }
      }
    }
  }
}
node {
  name: "seq2seq/encoder_1/rnn/Shape_2"
  op: "Shape"
  input: "seq2seq/encoder_1/rnn/transpose"
  device: "/device:GPU:0"
  attr {
    key: "T"
    value {
      type: DT_FLOAT
    }
  }
  attr {
    key: "_output_shapes"
    value {
      list {
        shape {
          dim {
            size: 3
          }
        }
      }
    }
  }
  attr {
    key: "out_type"
    value {
      type: DT_INT32
    }
  }
}
node {
  name: "seq2seq/encoder_1/rnn/strided_slice_1/stack"
  op: "Const"
  device: "/device:GPU:0"
  attr {
    key: "_output_shapes"
    value {
      list {
        shape {
          dim {
            size: 1
          }
        }
      }
    }
  }
  attr {
    key: "dtype"
    value {
      type: DT_INT32
    }
  }
  attr {
    key: "value"
    value {
      tensor {
        dtype: DT_INT32
        tensor_shape {
          dim {
            size: 1
          }
        }
        int_val: 0
      }
    }
  }
}
node {
  name: "seq2seq/encoder_1/rnn/strided_slice_1/stack_1"
  op: "Const"
  device: "/device:GPU:0"
  attr {
    key: "_output_shapes"
    value {
      list {
        shape {
          dim {
            size: 1
          }
        }
      }
    }
  }
  attr {
    key: "dtype"
    value {
      type: DT_INT32
    }
  }
  attr {
    key: "value"
    value {
      tensor {
        dtype: DT_INT32
        tensor_shape {
          dim {
            size: 1
          }
        }
        int_val: 1
      }
    }
  }
}
node {
  name: "seq2seq/encoder_1/rnn/strided_slice_1/stack_2"
  op: "Const"
  device: "/device:GPU:0"
  attr {
    key: "_output_shapes"
    value {
      list {
        shape {
          dim {
            size: 1
          }
        }
      }
    }
  }
  attr {
    key: "dtype"
    value {
      type: DT_INT32
    }
  }
  attr {
    key: "value"
    value {
      tensor {
        dtype: DT_INT32
        tensor_shape {
          dim {
            size: 1
          }
        }
        int_val: 1
      }
    }
  }
}
node {
  name: "seq2seq/encoder_1/rnn/strided_slice_1"
  op: "StridedSlice"
  input: "seq2seq/encoder_1/rnn/Shape_2"
  input: "seq2seq/encoder_1/rnn/strided_slice_1/stack"
  input: "seq2seq/encoder_1/rnn/strided_slice_1/stack_1"
  input: "seq2seq/encoder_1/rnn/strided_slice_1/stack_2"
  device: "/device:GPU:0"
  attr {
    key: "Index"
    value {
      type: DT_INT32
    }
  }
  attr {
    key: "T"
    value {
      type: DT_INT32
    }
  }
  attr {
    key: "_output_shapes"
    value {
      list {
        shape {
        }
      }
    }
  }
  attr {
    key: "begin_mask"
    value {
      i: 0
    }
  }
  attr {
    key: "ellipsis_mask"
    value {
      i: 0
    }
  }
  attr {
    key: "end_mask"
    value {
      i: 0
    }
  }
  attr {
    key: "new_axis_mask"
    value {
      i: 0
    }
  }
  attr {
    key: "shrink_axis_mask"
    value {
      i: 1
    }
  }
}
node {
  name: "seq2seq/encoder_1/rnn/Shape_3"
  op: "Shape"
  input: "seq2seq/encoder_1/rnn/transpose"
  device: "/device:GPU:0"
  attr {
    key: "T"
    value {
      type: DT_FLOAT
    }
  }
  attr {
    key: "_output_shapes"
    value {
      list {
        shape {
          dim {
            size: 3
          }
        }
      }
    }
  }
  attr {
    key: "out_type"
    value {
      type: DT_INT32
    }
  }
}
node {
  name: "seq2seq/encoder_1/rnn/strided_slice_2/stack"
  op: "Const"
  device: "/device:GPU:0"
  attr {
    key: "_output_shapes"
    value {
      list {
        shape {
          dim {
            size: 1
          }
        }
      }
    }
  }
  attr {
    key: "dtype"
    value {
      type: DT_INT32
    }
  }
  attr {
    key: "value"
    value {
      tensor {
        dtype: DT_INT32
        tensor_shape {
          dim {
            size: 1
          }
        }
        int_val: 1
      }
    }
  }
}
node {
  name: "seq2seq/encoder_1/rnn/strided_slice_2/stack_1"
  op: "Const"
  device: "/device:GPU:0"
  attr {
    key: "_output_shapes"
    value {
      list {
        shape {
          dim {
            size: 1
          }
        }
      }
    }
  }
  attr {
    key: "dtype"
    value {
      type: DT_INT32
    }
  }
  attr {
    key: "value"
    value {
      tensor {
        dtype: DT_INT32
        tensor_shape {
          dim {
            size: 1
          }
        }
        int_val: 2
      }
    }
  }
}
node {
  name: "seq2seq/encoder_1/rnn/strided_slice_2/stack_2"
  op: "Const"
  device: "/device:GPU:0"
  attr {
    key: "_output_shapes"
    value {
      list {
        shape {
          dim {
            size: 1
          }
        }
      }
    }
  }
  attr {
    key: "dtype"
    value {
      type: DT_INT32
    }
  }
  attr {
    key: "value"
    value {
      tensor {
        dtype: DT_INT32
        tensor_shape {
          dim {
            size: 1
          }
        }
        int_val: 1
      }
    }
  }
}
node {
  name: "seq2seq/encoder_1/rnn/strided_slice_2"
  op: "StridedSlice"
  input: "seq2seq/encoder_1/rnn/Shape_3"
  input: "seq2seq/encoder_1/rnn/strided_slice_2/stack"
  input: "seq2seq/encoder_1/rnn/strided_slice_2/stack_1"
  input: "seq2seq/encoder_1/rnn/strided_slice_2/stack_2"
  device: "/device:GPU:0"
  attr {
    key: "Index"
    value {
      type: DT_INT32
    }
  }
  attr {
    key: "T"
    value {
      type: DT_INT32
    }
  }
  attr {
    key: "_output_shapes"
    value {
      list {
        shape {
        }
      }
    }
  }
  attr {
    key: "begin_mask"
    value {
      i: 0
    }
  }
  attr {
    key: "ellipsis_mask"
    value {
      i: 0
    }
  }
  attr {
    key: "end_mask"
    value {
      i: 0
    }
  }
  attr {
    key: "new_axis_mask"
    value {
      i: 0
    }
  }
  attr {
    key: "shrink_axis_mask"
    value {
      i: 1
    }
  }
}
node {
  name: "seq2seq/encoder_1/rnn/ExpandDims/dim"
  op: "Const"
  device: "/device:GPU:0"
  attr {
    key: "_output_shapes"
    value {
      list {
        shape {
        }
      }
    }
  }
  attr {
    key: "dtype"
    value {
      type: DT_INT32
    }
  }
  attr {
    key: "value"
    value {
      tensor {
        dtype: DT_INT32
        tensor_shape {
        }
        int_val: 0
      }
    }
  }
}
node {
  name: "seq2seq/encoder_1/rnn/ExpandDims"
  op: "ExpandDims"
  input: "seq2seq/encoder_1/rnn/strided_slice_2"
  input: "seq2seq/encoder_1/rnn/ExpandDims/dim"
  device: "/device:GPU:0"
  attr {
    key: "T"
    value {
      type: DT_INT32
    }
  }
  attr {
    key: "Tdim"
    value {
      type: DT_INT32
    }
  }
  attr {
    key: "_output_shapes"
    value {
      list {
        shape {
          dim {
            size: 1
          }
        }
      }
    }
  }
}
node {
  name: "seq2seq/encoder_1/rnn/Const_1"
  op: "Const"
  device: "/device:GPU:0"
  attr {
    key: "_output_shapes"
    value {
      list {
        shape {
          dim {
            size: 1
          }
        }
      }
    }
  }
  attr {
    key: "dtype"
    value {
      type: DT_INT32
    }
  }
  attr {
    key: "value"
    value {
      tensor {
        dtype: DT_INT32
        tensor_shape {
          dim {
            size: 1
          }
        }
        int_val: 512
      }
    }
  }
}
node {
  name: "seq2seq/encoder_1/rnn/concat_1/axis"
  op: "Const"
  device: "/device:GPU:0"
  attr {
    key: "_output_shapes"
    value {
      list {
        shape {
        }
      }
    }
  }
  attr {
    key: "dtype"
    value {
      type: DT_INT32
    }
  }
  attr {
    key: "value"
    value {
      tensor {
        dtype: DT_INT32
        tensor_shape {
        }
        int_val: 0
      }
    }
  }
}
node {
  name: "seq2seq/encoder_1/rnn/concat_1"
  op: "ConcatV2"
  input: "seq2seq/encoder_1/rnn/ExpandDims"
  input: "seq2seq/encoder_1/rnn/Const_1"
  input: "seq2seq/encoder_1/rnn/concat_1/axis"
  device: "/device:GPU:0"
  attr {
    key: "N"
    value {
      i: 2
    }
  }
  attr {
    key: "T"
    value {
      type: DT_INT32
    }
  }
  attr {
    key: "Tidx"
    value {
      type: DT_INT32
    }
  }
  attr {
    key: "_output_shapes"
    value {
      list {
        shape {
          dim {
            size: 2
          }
        }
      }
    }
  }
}
node {
  name: "seq2seq/encoder_1/rnn/zeros/Const"
  op: "Const"
  device: "/device:GPU:0"
  attr {
    key: "_output_shapes"
    value {
      list {
        shape {
        }
      }
    }
  }
  attr {
    key: "dtype"
    value {
      type: DT_FLOAT
    }
  }
  attr {
    key: "value"
    value {
      tensor {
        dtype: DT_FLOAT
        tensor_shape {
        }
        float_val: 0.0
      }
    }
  }
}
node {
  name: "seq2seq/encoder_1/rnn/zeros"
  op: "Fill"
  input: "seq2seq/encoder_1/rnn/concat_1"
  input: "seq2seq/encoder_1/rnn/zeros/Const"
  device: "/device:GPU:0"
  attr {
    key: "T"
    value {
      type: DT_FLOAT
    }
  }
  attr {
    key: "_output_shapes"
    value {
      list {
        shape {
          dim {
            size: -1
          }
          dim {
            size: 512
          }
        }
      }
    }
  }
  attr {
    key: "index_type"
    value {
      type: DT_INT32
    }
  }
}
node {
  name: "seq2seq/encoder_1/rnn/Const_2"
  op: "Const"
  device: "/device:GPU:0"
  attr {
    key: "_output_shapes"
    value {
      list {
        shape {
          dim {
            size: 1
          }
        }
      }
    }
  }
  attr {
    key: "dtype"
    value {
      type: DT_INT32
    }
  }
  attr {
    key: "value"
    value {
      tensor {
        dtype: DT_INT32
        tensor_shape {
          dim {
            size: 1
          }
        }
        int_val: 0
      }
    }
  }
}
node {
  name: "seq2seq/encoder_1/rnn/Min"
  op: "Min"
  input: "seq2seq/encoder_1/rnn/CheckSeqLen"
  input: "seq2seq/encoder_1/rnn/Const_2"
  device: "/device:GPU:0"
  attr {
    key: "T"
    value {
      type: DT_INT32
    }
  }
  attr {
    key: "Tidx"
    value {
      type: DT_INT32
    }
  }
  attr {
    key: "_output_shapes"
    value {
      list {
        shape {
        }
      }
    }
  }
  attr {
    key: "keep_dims"
    value {
      b: false
    }
  }
}
node {
  name: "seq2seq/encoder_1/rnn/Const_3"
  op: "Const"
  device: "/device:GPU:0"
  attr {
    key: "_output_shapes"
    value {
      list {
        shape {
          dim {
            size: 1
          }
        }
      }
    }
  }
  attr {
    key: "dtype"
    value {
      type: DT_INT32
    }
  }
  attr {
    key: "value"
    value {
      tensor {
        dtype: DT_INT32
        tensor_shape {
          dim {
            size: 1
          }
        }
        int_val: 0
      }
    }
  }
}
node {
  name: "seq2seq/encoder_1/rnn/Max"
  op: "Max"
  input: "seq2seq/encoder_1/rnn/CheckSeqLen"
  input: "seq2seq/encoder_1/rnn/Const_3"
  device: "/device:GPU:0"
  attr {
    key: "T"
    value {
      type: DT_INT32
    }
  }
  attr {
    key: "Tidx"
    value {
      type: DT_INT32
    }
  }
  attr {
    key: "_output_shapes"
    value {
      list {
        shape {
        }
      }
    }
  }
  attr {
    key: "keep_dims"
    value {
      b: false
    }
  }
}
node {
  name: "seq2seq/encoder_1/rnn/time"
  op: "Const"
  device: "/device:GPU:0"
  attr {
    key: "_output_shapes"
    value {
      list {
        shape {
        }
      }
    }
  }
  attr {
    key: "dtype"
    value {
      type: DT_INT32
    }
  }
  attr {
    key: "value"
    value {
      tensor {
        dtype: DT_INT32
        tensor_shape {
        }
        int_val: 0
      }
    }
  }
}
node {
  name: "seq2seq/encoder_1/rnn/TensorArray"
  op: "TensorArrayV3"
  input: "seq2seq/encoder_1/rnn/strided_slice_1"
  attr {
    key: "_output_shapes"
    value {
      list {
        shape {
          dim {
            size: 2
          }
        }
        shape {
        }
      }
    }
  }
  attr {
    key: "clear_after_read"
    value {
      b: true
    }
  }
  attr {
    key: "dtype"
    value {
      type: DT_FLOAT
    }
  }
  attr {
    key: "dynamic_size"
    value {
      b: false
    }
  }
  attr {
    key: "element_shape"
    value {
      shape {
        dim {
          size: -1
        }
        dim {
          size: 512
        }
      }
    }
  }
  attr {
    key: "identical_element_shapes"
    value {
      b: true
    }
  }
  attr {
    key: "tensor_array_name"
    value {
      s: "seq2seq/encoder_1/rnn/dynamic_rnn/output_0"
    }
  }
}
node {
  name: "seq2seq/encoder_1/rnn/TensorArray_1"
  op: "TensorArrayV3"
  input: "seq2seq/encoder_1/rnn/strided_slice_1"
  attr {
    key: "_output_shapes"
    value {
      list {
        shape {
          dim {
            size: 2
          }
        }
        shape {
        }
      }
    }
  }
  attr {
    key: "clear_after_read"
    value {
      b: true
    }
  }
  attr {
    key: "dtype"
    value {
      type: DT_FLOAT
    }
  }
  attr {
    key: "dynamic_size"
    value {
      b: false
    }
  }
  attr {
    key: "element_shape"
    value {
      shape {
        dim {
          size: -1
        }
        dim {
          size: 512
        }
      }
    }
  }
  attr {
    key: "identical_element_shapes"
    value {
      b: true
    }
  }
  attr {
    key: "tensor_array_name"
    value {
      s: "seq2seq/encoder_1/rnn/dynamic_rnn/input_0"
    }
  }
}
node {
  name: "seq2seq/encoder_1/rnn/TensorArrayUnstack/Shape"
  op: "Shape"
  input: "seq2seq/encoder_1/rnn/transpose"
  device: "/device:GPU:0"
  attr {
    key: "T"
    value {
      type: DT_FLOAT
    }
  }
  attr {
    key: "_output_shapes"
    value {
      list {
        shape {
          dim {
            size: 3
          }
        }
      }
    }
  }
  attr {
    key: "out_type"
    value {
      type: DT_INT32
    }
  }
}
node {
  name: "seq2seq/encoder_1/rnn/TensorArrayUnstack/strided_slice/stack"
  op: "Const"
  device: "/device:GPU:0"
  attr {
    key: "_output_shapes"
    value {
      list {
        shape {
          dim {
            size: 1
          }
        }
      }
    }
  }
  attr {
    key: "dtype"
    value {
      type: DT_INT32
    }
  }
  attr {
    key: "value"
    value {
      tensor {
        dtype: DT_INT32
        tensor_shape {
          dim {
            size: 1
          }
        }
        int_val: 0
      }
    }
  }
}
node {
  name: "seq2seq/encoder_1/rnn/TensorArrayUnstack/strided_slice/stack_1"
  op: "Const"
  device: "/device:GPU:0"
  attr {
    key: "_output_shapes"
    value {
      list {
        shape {
          dim {
            size: 1
          }
        }
      }
    }
  }
  attr {
    key: "dtype"
    value {
      type: DT_INT32
    }
  }
  attr {
    key: "value"
    value {
      tensor {
        dtype: DT_INT32
        tensor_shape {
          dim {
            size: 1
          }
        }
        int_val: 1
      }
    }
  }
}
node {
  name: "seq2seq/encoder_1/rnn/TensorArrayUnstack/strided_slice/stack_2"
  op: "Const"
  device: "/device:GPU:0"
  attr {
    key: "_output_shapes"
    value {
      list {
        shape {
          dim {
            size: 1
          }
        }
      }
    }
  }
  attr {
    key: "dtype"
    value {
      type: DT_INT32
    }
  }
  attr {
    key: "value"
    value {
      tensor {
        dtype: DT_INT32
        tensor_shape {
          dim {
            size: 1
          }
        }
        int_val: 1
      }
    }
  }
}
node {
  name: "seq2seq/encoder_1/rnn/TensorArrayUnstack/strided_slice"
  op: "StridedSlice"
  input: "seq2seq/encoder_1/rnn/TensorArrayUnstack/Shape"
  input: "seq2seq/encoder_1/rnn/TensorArrayUnstack/strided_slice/stack"
  input: "seq2seq/encoder_1/rnn/TensorArrayUnstack/strided_slice/stack_1"
  input: "seq2seq/encoder_1/rnn/TensorArrayUnstack/strided_slice/stack_2"
  device: "/device:GPU:0"
  attr {
    key: "Index"
    value {
      type: DT_INT32
    }
  }
  attr {
    key: "T"
    value {
      type: DT_INT32
    }
  }
  attr {
    key: "_output_shapes"
    value {
      list {
        shape {
        }
      }
    }
  }
  attr {
    key: "begin_mask"
    value {
      i: 0
    }
  }
  attr {
    key: "ellipsis_mask"
    value {
      i: 0
    }
  }
  attr {
    key: "end_mask"
    value {
      i: 0
    }
  }
  attr {
    key: "new_axis_mask"
    value {
      i: 0
    }
  }
  attr {
    key: "shrink_axis_mask"
    value {
      i: 1
    }
  }
}
node {
  name: "seq2seq/encoder_1/rnn/TensorArrayUnstack/range/start"
  op: "Const"
  device: "/device:GPU:0"
  attr {
    key: "_output_shapes"
    value {
      list {
        shape {
        }
      }
    }
  }
  attr {
    key: "dtype"
    value {
      type: DT_INT32
    }
  }
  attr {
    key: "value"
    value {
      tensor {
        dtype: DT_INT32
        tensor_shape {
        }
        int_val: 0
      }
    }
  }
}
node {
  name: "seq2seq/encoder_1/rnn/TensorArrayUnstack/range/delta"
  op: "Const"
  device: "/device:GPU:0"
  attr {
    key: "_output_shapes"
    value {
      list {
        shape {
        }
      }
    }
  }
  attr {
    key: "dtype"
    value {
      type: DT_INT32
    }
  }
  attr {
    key: "value"
    value {
      tensor {
        dtype: DT_INT32
        tensor_shape {
        }
        int_val: 1
      }
    }
  }
}
node {
  name: "seq2seq/encoder_1/rnn/TensorArrayUnstack/range"
  op: "Range"
  input: "seq2seq/encoder_1/rnn/TensorArrayUnstack/range/start"
  input: "seq2seq/encoder_1/rnn/TensorArrayUnstack/strided_slice"
  input: "seq2seq/encoder_1/rnn/TensorArrayUnstack/range/delta"
  device: "/device:GPU:0"
  attr {
    key: "Tidx"
    value {
      type: DT_INT32
    }
  }
  attr {
    key: "_output_shapes"
    value {
      list {
        shape {
          dim {
            size: -1
          }
        }
      }
    }
  }
}
node {
  name: "seq2seq/encoder_1/rnn/TensorArrayUnstack/TensorArrayScatter/TensorArrayScatterV3"
  op: "TensorArrayScatterV3"
  input: "seq2seq/encoder_1/rnn/TensorArray_1"
  input: "seq2seq/encoder_1/rnn/TensorArrayUnstack/range"
  input: "seq2seq/encoder_1/rnn/transpose"
  input: "seq2seq/encoder_1/rnn/TensorArray_1:1"
  device: "/device:GPU:0"
  attr {
    key: "T"
    value {
      type: DT_FLOAT
    }
  }
  attr {
    key: "_class"
    value {
      list {
        s: "loc:@seq2seq/encoder_1/rnn/transpose"
      }
    }
  }
  attr {
    key: "_output_shapes"
    value {
      list {
        shape {
        }
      }
    }
  }
}
node {
  name: "seq2seq/encoder_1/rnn/Maximum/x"
  op: "Const"
  device: "/device:GPU:0"
  attr {
    key: "_output_shapes"
    value {
      list {
        shape {
        }
      }
    }
  }
  attr {
    key: "dtype"
    value {
      type: DT_INT32
    }
  }
  attr {
    key: "value"
    value {
      tensor {
        dtype: DT_INT32
        tensor_shape {
        }
        int_val: 1
      }
    }
  }
}
node {
  name: "seq2seq/encoder_1/rnn/Maximum"
  op: "Maximum"
  input: "seq2seq/encoder_1/rnn/Maximum/x"
  input: "seq2seq/encoder_1/rnn/Max"
  device: "/device:GPU:0"
  attr {
    key: "T"
    value {
      type: DT_INT32
    }
  }
  attr {
    key: "_output_shapes"
    value {
      list {
        shape {
        }
      }
    }
  }
}
node {
  name: "seq2seq/encoder_1/rnn/Minimum"
  op: "Minimum"
  input: "seq2seq/encoder_1/rnn/strided_slice_1"
  input: "seq2seq/encoder_1/rnn/Maximum"
  device: "/device:GPU:0"
  attr {
    key: "T"
    value {
      type: DT_INT32
    }
  }
  attr {
    key: "_output_shapes"
    value {
      list {
        shape {
        }
      }
    }
  }
}
node {
  name: "seq2seq/encoder_1/rnn/while/iteration_counter"
  op: "Const"
  device: "/device:GPU:0"
  attr {
    key: "_output_shapes"
    value {
      list {
        shape {
        }
      }
    }
  }
  attr {
    key: "dtype"
    value {
      type: DT_INT32
    }
  }
  attr {
    key: "value"
    value {
      tensor {
        dtype: DT_INT32
        tensor_shape {
        }
        int_val: 0
      }
    }
  }
}
node {
  name: "seq2seq/encoder_1/rnn/while/Enter"
  op: "Enter"
  input: "seq2seq/encoder_1/rnn/while/iteration_counter"
  device: "/device:GPU:0"
  attr {
    key: "T"
    value {
      type: DT_INT32
    }
  }
  attr {
    key: "_output_shapes"
    value {
      list {
        shape {
        }
      }
    }
  }
  attr {
    key: "frame_name"
    value {
      s: "seq2seq/encoder_1/rnn/while/while_context"
    }
  }
  attr {
    key: "is_constant"
    value {
      b: false
    }
  }
  attr {
    key: "parallel_iterations"
    value {
      i: 32
    }
  }
}
node {
  name: "seq2seq/encoder_1/rnn/while/Enter_1"
  op: "Enter"
  input: "seq2seq/encoder_1/rnn/time"
  device: "/device:GPU:0"
  attr {
    key: "T"
    value {
      type: DT_INT32
    }
  }
  attr {
    key: "_output_shapes"
    value {
      list {
        shape {
        }
      }
    }
  }
  attr {
    key: "frame_name"
    value {
      s: "seq2seq/encoder_1/rnn/while/while_context"
    }
  }
  attr {
    key: "is_constant"
    value {
      b: false
    }
  }
  attr {
    key: "parallel_iterations"
    value {
      i: 32
    }
  }
}
node {
  name: "seq2seq/encoder_1/rnn/while/Enter_2"
  op: "Enter"
  input: "seq2seq/encoder_1/rnn/TensorArray:1"
  device: "/device:GPU:0"
  attr {
    key: "T"
    value {
      type: DT_FLOAT
    }
  }
  attr {
    key: "_output_shapes"
    value {
      list {
        shape {
        }
      }
    }
  }
  attr {
    key: "frame_name"
    value {
      s: "seq2seq/encoder_1/rnn/while/while_context"
    }
  }
  attr {
    key: "is_constant"
    value {
      b: false
    }
  }
  attr {
    key: "parallel_iterations"
    value {
      i: 32
    }
  }
}
node {
  name: "seq2seq/encoder_1/rnn/while/Enter_3"
  op: "Enter"
  input: "seq2seq/encoder_1/rnn/MultiRNNCellZeroState/DropoutWrapperZeroState/LSTMCellZeroState/zeros"
  device: "/device:GPU:0"
  attr {
    key: "T"
    value {
      type: DT_FLOAT
    }
  }
  attr {
    key: "_output_shapes"
    value {
      list {
        shape {
          dim {
            size: -1
          }
          dim {
            size: 512
          }
        }
      }
    }
  }
  attr {
    key: "frame_name"
    value {
      s: "seq2seq/encoder_1/rnn/while/while_context"
    }
  }
  attr {
    key: "is_constant"
    value {
      b: false
    }
  }
  attr {
    key: "parallel_iterations"
    value {
      i: 32
    }
  }
}
node {
  name: "seq2seq/encoder_1/rnn/while/Enter_4"
  op: "Enter"
  input: "seq2seq/encoder_1/rnn/MultiRNNCellZeroState/DropoutWrapperZeroState/LSTMCellZeroState/zeros_1"
  device: "/device:GPU:0"
  attr {
    key: "T"
    value {
      type: DT_FLOAT
    }
  }
  attr {
    key: "_output_shapes"
    value {
      list {
        shape {
          dim {
            size: -1
          }
          dim {
            size: 512
          }
        }
      }
    }
  }
  attr {
    key: "frame_name"
    value {
      s: "seq2seq/encoder_1/rnn/while/while_context"
    }
  }
  attr {
    key: "is_constant"
    value {
      b: false
    }
  }
  attr {
    key: "parallel_iterations"
    value {
      i: 32
    }
  }
}
node {
  name: "seq2seq/encoder_1/rnn/while/Enter_5"
  op: "Enter"
  input: "seq2seq/encoder_1/rnn/MultiRNNCellZeroState/DropoutWrapperZeroState_1/LSTMCellZeroState/zeros"
  device: "/device:GPU:0"
  attr {
    key: "T"
    value {
      type: DT_FLOAT
    }
  }
  attr {
    key: "_output_shapes"
    value {
      list {
        shape {
          dim {
            size: -1
          }
          dim {
            size: 512
          }
        }
      }
    }
  }
  attr {
    key: "frame_name"
    value {
      s: "seq2seq/encoder_1/rnn/while/while_context"
    }
  }
  attr {
    key: "is_constant"
    value {
      b: false
    }
  }
  attr {
    key: "parallel_iterations"
    value {
      i: 32
    }
  }
}
node {
  name: "seq2seq/encoder_1/rnn/while/Enter_6"
  op: "Enter"
  input: "seq2seq/encoder_1/rnn/MultiRNNCellZeroState/DropoutWrapperZeroState_1/LSTMCellZeroState/zeros_1"
  device: "/device:GPU:0"
  attr {
    key: "T"
    value {
      type: DT_FLOAT
    }
  }
  attr {
    key: "_output_shapes"
    value {
      list {
        shape {
          dim {
            size: -1
          }
          dim {
            size: 512
          }
        }
      }
    }
  }
  attr {
    key: "frame_name"
    value {
      s: "seq2seq/encoder_1/rnn/while/while_context"
    }
  }
  attr {
    key: "is_constant"
    value {
      b: false
    }
  }
  attr {
    key: "parallel_iterations"
    value {
      i: 32
    }
  }
}
node {
  name: "seq2seq/encoder_1/rnn/while/Merge"
  op: "Merge"
  input: "seq2seq/encoder_1/rnn/while/Enter"
  input: "seq2seq/encoder_1/rnn/while/NextIteration"
  device: "/device:GPU:0"
  attr {
    key: "N"
    value {
      i: 2
    }
  }
  attr {
    key: "T"
    value {
      type: DT_INT32
    }
  }
  attr {
    key: "_output_shapes"
    value {
      list {
        shape {
        }
        shape {
        }
      }
    }
  }
}
node {
  name: "seq2seq/encoder_1/rnn/while/Merge_1"
  op: "Merge"
  input: "seq2seq/encoder_1/rnn/while/Enter_1"
  input: "seq2seq/encoder_1/rnn/while/NextIteration_1"
  device: "/device:GPU:0"
  attr {
    key: "N"
    value {
      i: 2
    }
  }
  attr {
    key: "T"
    value {
      type: DT_INT32
    }
  }
  attr {
    key: "_output_shapes"
    value {
      list {
        shape {
        }
        shape {
        }
      }
    }
  }
}
node {
  name: "seq2seq/encoder_1/rnn/while/Merge_2"
  op: "Merge"
  input: "seq2seq/encoder_1/rnn/while/Enter_2"
  input: "seq2seq/encoder_1/rnn/while/NextIteration_2"
  device: "/device:GPU:0"
  attr {
    key: "N"
    value {
      i: 2
    }
  }
  attr {
    key: "T"
    value {
      type: DT_FLOAT
    }
  }
  attr {
    key: "_output_shapes"
    value {
      list {
        shape {
        }
        shape {
        }
      }
    }
  }
}
node {
  name: "seq2seq/encoder_1/rnn/while/Merge_3"
  op: "Merge"
  input: "seq2seq/encoder_1/rnn/while/Enter_3"
  input: "seq2seq/encoder_1/rnn/while/NextIteration_3"
  device: "/device:GPU:0"
  attr {
    key: "N"
    value {
      i: 2
    }
  }
  attr {
    key: "T"
    value {
      type: DT_FLOAT
    }
  }
  attr {
    key: "_output_shapes"
    value {
      list {
        shape {
          dim {
            size: -1
          }
          dim {
            size: 512
          }
        }
        shape {
        }
      }
    }
  }
}
node {
  name: "seq2seq/encoder_1/rnn/while/Merge_4"
  op: "Merge"
  input: "seq2seq/encoder_1/rnn/while/Enter_4"
  input: "seq2seq/encoder_1/rnn/while/NextIteration_4"
  device: "/device:GPU:0"
  attr {
    key: "N"
    value {
      i: 2
    }
  }
  attr {
    key: "T"
    value {
      type: DT_FLOAT
    }
  }
  attr {
    key: "_output_shapes"
    value {
      list {
        shape {
          dim {
            size: -1
          }
          dim {
            size: 512
          }
        }
        shape {
        }
      }
    }
  }
}
node {
  name: "seq2seq/encoder_1/rnn/while/Merge_5"
  op: "Merge"
  input: "seq2seq/encoder_1/rnn/while/Enter_5"
  input: "seq2seq/encoder_1/rnn/while/NextIteration_5"
  device: "/device:GPU:0"
  attr {
    key: "N"
    value {
      i: 2
    }
  }
  attr {
    key: "T"
    value {
      type: DT_FLOAT
    }
  }
  attr {
    key: "_output_shapes"
    value {
      list {
        shape {
          dim {
            size: -1
          }
          dim {
            size: 512
          }
        }
        shape {
        }
      }
    }
  }
}
node {
  name: "seq2seq/encoder_1/rnn/while/Merge_6"
  op: "Merge"
  input: "seq2seq/encoder_1/rnn/while/Enter_6"
  input: "seq2seq/encoder_1/rnn/while/NextIteration_6"
  device: "/device:GPU:0"
  attr {
    key: "N"
    value {
      i: 2
    }
  }
  attr {
    key: "T"
    value {
      type: DT_FLOAT
    }
  }
  attr {
    key: "_output_shapes"
    value {
      list {
        shape {
          dim {
            size: -1
          }
          dim {
            size: 512
          }
        }
        shape {
        }
      }
    }
  }
}
node {
  name: "seq2seq/encoder_1/rnn/while/Less"
  op: "Less"
  input: "seq2seq/encoder_1/rnn/while/Merge"
  input: "seq2seq/encoder_1/rnn/while/Less/Enter"
  device: "/device:GPU:0"
  attr {
    key: "T"
    value {
      type: DT_INT32
    }
  }
  attr {
    key: "_output_shapes"
    value {
      list {
        shape {
        }
      }
    }
  }
}
node {
  name: "seq2seq/encoder_1/rnn/while/Less/Enter"
  op: "Enter"
  input: "seq2seq/encoder_1/rnn/strided_slice_1"
  device: "/device:GPU:0"
  attr {
    key: "T"
    value {
      type: DT_INT32
    }
  }
  attr {
    key: "_output_shapes"
    value {
      list {
        shape {
        }
      }
    }
  }
  attr {
    key: "frame_name"
    value {
      s: "seq2seq/encoder_1/rnn/while/while_context"
    }
  }
  attr {
    key: "is_constant"
    value {
      b: true
    }
  }
  attr {
    key: "parallel_iterations"
    value {
      i: 32
    }
  }
}
node {
  name: "seq2seq/encoder_1/rnn/while/Less_1"
  op: "Less"
  input: "seq2seq/encoder_1/rnn/while/Merge_1"
  input: "seq2seq/encoder_1/rnn/while/Less_1/Enter"
  device: "/device:GPU:0"
  attr {
    key: "T"
    value {
      type: DT_INT32
    }
  }
  attr {
    key: "_output_shapes"
    value {
      list {
        shape {
        }
      }
    }
  }
}
node {
  name: "seq2seq/encoder_1/rnn/while/Less_1/Enter"
  op: "Enter"
  input: "seq2seq/encoder_1/rnn/Minimum"
  device: "/device:GPU:0"
  attr {
    key: "T"
    value {
      type: DT_INT32
    }
  }
  attr {
    key: "_output_shapes"
    value {
      list {
        shape {
        }
      }
    }
  }
  attr {
    key: "frame_name"
    value {
      s: "seq2seq/encoder_1/rnn/while/while_context"
    }
  }
  attr {
    key: "is_constant"
    value {
      b: true
    }
  }
  attr {
    key: "parallel_iterations"
    value {
      i: 32
    }
  }
}
node {
  name: "seq2seq/encoder_1/rnn/while/LogicalAnd"
  op: "LogicalAnd"
  input: "seq2seq/encoder_1/rnn/while/Less"
  input: "seq2seq/encoder_1/rnn/while/Less_1"
  device: "/device:GPU:0"
  attr {
    key: "_output_shapes"
    value {
      list {
        shape {
        }
      }
    }
  }
}
node {
  name: "seq2seq/encoder_1/rnn/while/LoopCond"
  op: "LoopCond"
  input: "seq2seq/encoder_1/rnn/while/LogicalAnd"
  device: "/device:GPU:0"
  attr {
    key: "_output_shapes"
    value {
      list {
        shape {
        }
      }
    }
  }
}
node {
  name: "seq2seq/encoder_1/rnn/while/Switch"
  op: "Switch"
  input: "seq2seq/encoder_1/rnn/while/Merge"
  input: "seq2seq/encoder_1/rnn/while/LoopCond"
  device: "/device:GPU:0"
  attr {
    key: "T"
    value {
      type: DT_INT32
    }
  }
  attr {
    key: "_class"
    value {
      list {
        s: "loc:@seq2seq/encoder_1/rnn/while/Merge"
      }
    }
  }
  attr {
    key: "_output_shapes"
    value {
      list {
        shape {
        }
        shape {
        }
      }
    }
  }
}
node {
  name: "seq2seq/encoder_1/rnn/while/Switch_1"
  op: "Switch"
  input: "seq2seq/encoder_1/rnn/while/Merge_1"
  input: "seq2seq/encoder_1/rnn/while/LoopCond"
  device: "/device:GPU:0"
  attr {
    key: "T"
    value {
      type: DT_INT32
    }
  }
  attr {
    key: "_class"
    value {
      list {
        s: "loc:@seq2seq/encoder_1/rnn/while/Merge_1"
      }
    }
  }
  attr {
    key: "_output_shapes"
    value {
      list {
        shape {
        }
        shape {
        }
      }
    }
  }
}
node {
  name: "seq2seq/encoder_1/rnn/while/Switch_2"
  op: "Switch"
  input: "seq2seq/encoder_1/rnn/while/Merge_2"
  input: "seq2seq/encoder_1/rnn/while/LoopCond"
  device: "/device:GPU:0"
  attr {
    key: "T"
    value {
      type: DT_FLOAT
    }
  }
  attr {
    key: "_class"
    value {
      list {
        s: "loc:@seq2seq/encoder_1/rnn/while/Merge_2"
      }
    }
  }
  attr {
    key: "_output_shapes"
    value {
      list {
        shape {
        }
        shape {
        }
      }
    }
  }
}
node {
  name: "seq2seq/encoder_1/rnn/while/Switch_3"
  op: "Switch"
  input: "seq2seq/encoder_1/rnn/while/Merge_3"
  input: "seq2seq/encoder_1/rnn/while/LoopCond"
  device: "/device:GPU:0"
  attr {
    key: "T"
    value {
      type: DT_FLOAT
    }
  }
  attr {
    key: "_class"
    value {
      list {
        s: "loc:@seq2seq/encoder_1/rnn/while/Merge_3"
      }
    }
  }
  attr {
    key: "_output_shapes"
    value {
      list {
        shape {
          dim {
            size: -1
          }
          dim {
            size: 512
          }
        }
        shape {
          dim {
            size: -1
          }
          dim {
            size: 512
          }
        }
      }
    }
  }
}
node {
  name: "seq2seq/encoder_1/rnn/while/Switch_4"
  op: "Switch"
  input: "seq2seq/encoder_1/rnn/while/Merge_4"
  input: "seq2seq/encoder_1/rnn/while/LoopCond"
  device: "/device:GPU:0"
  attr {
    key: "T"
    value {
      type: DT_FLOAT
    }
  }
  attr {
    key: "_class"
    value {
      list {
        s: "loc:@seq2seq/encoder_1/rnn/while/Merge_4"
      }
    }
  }
  attr {
    key: "_output_shapes"
    value {
      list {
        shape {
          dim {
            size: -1
          }
          dim {
            size: 512
          }
        }
        shape {
          dim {
            size: -1
          }
          dim {
            size: 512
          }
        }
      }
    }
  }
}
node {
  name: "seq2seq/encoder_1/rnn/while/Switch_5"
  op: "Switch"
  input: "seq2seq/encoder_1/rnn/while/Merge_5"
  input: "seq2seq/encoder_1/rnn/while/LoopCond"
  device: "/device:GPU:0"
  attr {
    key: "T"
    value {
      type: DT_FLOAT
    }
  }
  attr {
    key: "_class"
    value {
      list {
        s: "loc:@seq2seq/encoder_1/rnn/while/Merge_5"
      }
    }
  }
  attr {
    key: "_output_shapes"
    value {
      list {
        shape {
          dim {
            size: -1
          }
          dim {
            size: 512
          }
        }
        shape {
          dim {
            size: -1
          }
          dim {
            size: 512
          }
        }
      }
    }
  }
}
node {
  name: "seq2seq/encoder_1/rnn/while/Switch_6"
  op: "Switch"
  input: "seq2seq/encoder_1/rnn/while/Merge_6"
  input: "seq2seq/encoder_1/rnn/while/LoopCond"
  device: "/device:GPU:0"
  attr {
    key: "T"
    value {
      type: DT_FLOAT
    }
  }
  attr {
    key: "_class"
    value {
      list {
        s: "loc:@seq2seq/encoder_1/rnn/while/Merge_6"
      }
    }
  }
  attr {
    key: "_output_shapes"
    value {
      list {
        shape {
          dim {
            size: -1
          }
          dim {
            size: 512
          }
        }
        shape {
          dim {
            size: -1
          }
          dim {
            size: 512
          }
        }
      }
    }
  }
}
node {
  name: "seq2seq/encoder_1/rnn/while/Identity"
  op: "Identity"
  input: "seq2seq/encoder_1/rnn/while/Switch:1"
  device: "/device:GPU:0"
  attr {
    key: "T"
    value {
      type: DT_INT32
    }
  }
  attr {
    key: "_output_shapes"
    value {
      list {
        shape {
        }
      }
    }
  }
}
node {
  name: "seq2seq/encoder_1/rnn/while/Identity_1"
  op: "Identity"
  input: "seq2seq/encoder_1/rnn/while/Switch_1:1"
  device: "/device:GPU:0"
  attr {
    key: "T"
    value {
      type: DT_INT32
    }
  }
  attr {
    key: "_output_shapes"
    value {
      list {
        shape {
        }
      }
    }
  }
}
node {
  name: "seq2seq/encoder_1/rnn/while/Identity_2"
  op: "Identity"
  input: "seq2seq/encoder_1/rnn/while/Switch_2:1"
  device: "/device:GPU:0"
  attr {
    key: "T"
    value {
      type: DT_FLOAT
    }
  }
  attr {
    key: "_output_shapes"
    value {
      list {
        shape {
        }
      }
    }
  }
}
node {
  name: "seq2seq/encoder_1/rnn/while/Identity_3"
  op: "Identity"
  input: "seq2seq/encoder_1/rnn/while/Switch_3:1"
  device: "/device:GPU:0"
  attr {
    key: "T"
    value {
      type: DT_FLOAT
    }
  }
  attr {
    key: "_output_shapes"
    value {
      list {
        shape {
          dim {
            size: -1
          }
          dim {
            size: 512
          }
        }
      }
    }
  }
}
node {
  name: "seq2seq/encoder_1/rnn/while/Identity_4"
  op: "Identity"
  input: "seq2seq/encoder_1/rnn/while/Switch_4:1"
  device: "/device:GPU:0"
  attr {
    key: "T"
    value {
      type: DT_FLOAT
    }
  }
  attr {
    key: "_output_shapes"
    value {
      list {
        shape {
          dim {
            size: -1
          }
          dim {
            size: 512
          }
        }
      }
    }
  }
}
node {
  name: "seq2seq/encoder_1/rnn/while/Identity_5"
  op: "Identity"
  input: "seq2seq/encoder_1/rnn/while/Switch_5:1"
  device: "/device:GPU:0"
  attr {
    key: "T"
    value {
      type: DT_FLOAT
    }
  }
  attr {
    key: "_output_shapes"
    value {
      list {
        shape {
          dim {
            size: -1
          }
          dim {
            size: 512
          }
        }
      }
    }
  }
}
node {
  name: "seq2seq/encoder_1/rnn/while/Identity_6"
  op: "Identity"
  input: "seq2seq/encoder_1/rnn/while/Switch_6:1"
  device: "/device:GPU:0"
  attr {
    key: "T"
    value {
      type: DT_FLOAT
    }
  }
  attr {
    key: "_output_shapes"
    value {
      list {
        shape {
          dim {
            size: -1
          }
          dim {
            size: 512
          }
        }
      }
    }
  }
}
node {
  name: "seq2seq/encoder_1/rnn/while/add/y"
  op: "Const"
  input: "^seq2seq/encoder_1/rnn/while/Identity"
  device: "/device:GPU:0"
  attr {
    key: "_output_shapes"
    value {
      list {
        shape {
        }
      }
    }
  }
  attr {
    key: "dtype"
    value {
      type: DT_INT32
    }
  }
  attr {
    key: "value"
    value {
      tensor {
        dtype: DT_INT32
        tensor_shape {
        }
        int_val: 1
      }
    }
  }
}
node {
  name: "seq2seq/encoder_1/rnn/while/add"
  op: "Add"
  input: "seq2seq/encoder_1/rnn/while/Identity"
  input: "seq2seq/encoder_1/rnn/while/add/y"
  device: "/device:GPU:0"
  attr {
    key: "T"
    value {
      type: DT_INT32
    }
  }
  attr {
    key: "_output_shapes"
    value {
      list {
        shape {
        }
      }
    }
  }
}
node {
  name: "seq2seq/encoder_1/rnn/while/TensorArrayReadV3"
  op: "TensorArrayReadV3"
  input: "seq2seq/encoder_1/rnn/while/TensorArrayReadV3/Enter"
  input: "seq2seq/encoder_1/rnn/while/Identity_1"
  input: "seq2seq/encoder_1/rnn/while/TensorArrayReadV3/Enter_1"
  device: "/device:GPU:0"
  attr {
    key: "_output_shapes"
    value {
      list {
        shape {
          dim {
            size: -1
          }
          dim {
            size: 512
          }
        }
      }
    }
  }
  attr {
    key: "dtype"
    value {
      type: DT_FLOAT
    }
  }
}
node {
  name: "seq2seq/encoder_1/rnn/while/TensorArrayReadV3/Enter"
  op: "Enter"
  input: "seq2seq/encoder_1/rnn/TensorArray_1"
  device: "/device:GPU:0"
  attr {
    key: "T"
    value {
      type: DT_RESOURCE
    }
  }
  attr {
    key: "_output_shapes"
    value {
      list {
        shape {
          dim {
            size: 2
          }
        }
      }
    }
  }
  attr {
    key: "frame_name"
    value {
      s: "seq2seq/encoder_1/rnn/while/while_context"
    }
  }
  attr {
    key: "is_constant"
    value {
      b: true
    }
  }
  attr {
    key: "parallel_iterations"
    value {
      i: 32
    }
  }
}
node {
  name: "seq2seq/encoder_1/rnn/while/TensorArrayReadV3/Enter_1"
  op: "Enter"
  input: "seq2seq/encoder_1/rnn/TensorArrayUnstack/TensorArrayScatter/TensorArrayScatterV3"
  device: "/device:GPU:0"
  attr {
    key: "T"
    value {
      type: DT_FLOAT
    }
  }
  attr {
    key: "_output_shapes"
    value {
      list {
        shape {
        }
      }
    }
  }
  attr {
    key: "frame_name"
    value {
      s: "seq2seq/encoder_1/rnn/while/while_context"
    }
  }
  attr {
    key: "is_constant"
    value {
      b: true
    }
  }
  attr {
    key: "parallel_iterations"
    value {
      i: 32
    }
  }
}
node {
  name: "seq2seq/encoder_1/rnn/while/GreaterEqual"
  op: "GreaterEqual"
  input: "seq2seq/encoder_1/rnn/while/Identity_1"
  input: "seq2seq/encoder_1/rnn/while/GreaterEqual/Enter"
  device: "/device:GPU:0"
  attr {
    key: "T"
    value {
      type: DT_INT32
    }
  }
  attr {
    key: "_output_shapes"
    value {
      list {
        shape {
          dim {
            size: -1
          }
        }
      }
    }
  }
}
node {
  name: "seq2seq/encoder_1/rnn/while/GreaterEqual/Enter"
  op: "Enter"
  input: "seq2seq/encoder_1/rnn/CheckSeqLen"
  device: "/device:GPU:0"
  attr {
    key: "T"
    value {
      type: DT_INT32
    }
  }
  attr {
    key: "_output_shapes"
    value {
      list {
        shape {
          dim {
            size: -1
          }
        }
      }
    }
  }
  attr {
    key: "frame_name"
    value {
      s: "seq2seq/encoder_1/rnn/while/while_context"
    }
  }
  attr {
    key: "is_constant"
    value {
      b: true
    }
  }
  attr {
    key: "parallel_iterations"
    value {
      i: 32
    }
  }
}
node {
  name: "seq2seq/encoder/rnn/multi_rnn_cell/cell_0/lstm_cell/kernel/Initializer/random_uniform/shape"
  op: "Const"
  attr {
    key: "_class"
    value {
      list {
        s: "loc:@seq2seq/encoder/rnn/multi_rnn_cell/cell_0/lstm_cell/kernel"
      }
    }
  }
  attr {
    key: "_output_shapes"
    value {
      list {
        shape {
          dim {
            size: 2
          }
        }
      }
    }
  }
  attr {
    key: "dtype"
    value {
      type: DT_INT32
    }
  }
  attr {
    key: "value"
    value {
      tensor {
        dtype: DT_INT32
        tensor_shape {
          dim {
            size: 2
          }
        }
        tensor_content: "\000\004\000\000\000\010\000\000"
      }
    }
  }
}
node {
  name: "seq2seq/encoder/rnn/multi_rnn_cell/cell_0/lstm_cell/kernel/Initializer/random_uniform/min"
  op: "Const"
  attr {
    key: "_class"
    value {
      list {
        s: "loc:@seq2seq/encoder/rnn/multi_rnn_cell/cell_0/lstm_cell/kernel"
      }
    }
  }
  attr {
    key: "_output_shapes"
    value {
      list {
        shape {
        }
      }
    }
  }
  attr {
    key: "dtype"
    value {
      type: DT_FLOAT
    }
  }
  attr {
    key: "value"
    value {
      tensor {
        dtype: DT_FLOAT
        tensor_shape {
        }
        float_val: -0.10000000149011612
      }
    }
  }
}
node {
  name: "seq2seq/encoder/rnn/multi_rnn_cell/cell_0/lstm_cell/kernel/Initializer/random_uniform/max"
  op: "Const"
  attr {
    key: "_class"
    value {
      list {
        s: "loc:@seq2seq/encoder/rnn/multi_rnn_cell/cell_0/lstm_cell/kernel"
      }
    }
  }
  attr {
    key: "_output_shapes"
    value {
      list {
        shape {
        }
      }
    }
  }
  attr {
    key: "dtype"
    value {
      type: DT_FLOAT
    }
  }
  attr {
    key: "value"
    value {
      tensor {
        dtype: DT_FLOAT
        tensor_shape {
        }
        float_val: 0.10000000149011612
      }
    }
  }
}
node {
  name: "seq2seq/encoder/rnn/multi_rnn_cell/cell_0/lstm_cell/kernel/Initializer/random_uniform/RandomUniform"
  op: "RandomUniform"
  input: "seq2seq/encoder/rnn/multi_rnn_cell/cell_0/lstm_cell/kernel/Initializer/random_uniform/shape"
  attr {
    key: "T"
    value {
      type: DT_INT32
    }
  }
  attr {
    key: "_class"
    value {
      list {
        s: "loc:@seq2seq/encoder/rnn/multi_rnn_cell/cell_0/lstm_cell/kernel"
      }
    }
  }
  attr {
    key: "_output_shapes"
    value {
      list {
        shape {
          dim {
            size: 1024
          }
          dim {
            size: 2048
          }
        }
      }
    }
  }
  attr {
    key: "dtype"
    value {
      type: DT_FLOAT
    }
  }
  attr {
    key: "seed"
    value {
      i: 0
    }
  }
  attr {
    key: "seed2"
    value {
      i: 0
    }
  }
}
node {
  name: "seq2seq/encoder/rnn/multi_rnn_cell/cell_0/lstm_cell/kernel/Initializer/random_uniform/sub"
  op: "Sub"
  input: "seq2seq/encoder/rnn/multi_rnn_cell/cell_0/lstm_cell/kernel/Initializer/random_uniform/max"
  input: "seq2seq/encoder/rnn/multi_rnn_cell/cell_0/lstm_cell/kernel/Initializer/random_uniform/min"
  attr {
    key: "T"
    value {
      type: DT_FLOAT
    }
  }
  attr {
    key: "_class"
    value {
      list {
        s: "loc:@seq2seq/encoder/rnn/multi_rnn_cell/cell_0/lstm_cell/kernel"
      }
    }
  }
  attr {
    key: "_output_shapes"
    value {
      list {
        shape {
        }
      }
    }
  }
}
node {
  name: "seq2seq/encoder/rnn/multi_rnn_cell/cell_0/lstm_cell/kernel/Initializer/random_uniform/mul"
  op: "Mul"
  input: "seq2seq/encoder/rnn/multi_rnn_cell/cell_0/lstm_cell/kernel/Initializer/random_uniform/RandomUniform"
  input: "seq2seq/encoder/rnn/multi_rnn_cell/cell_0/lstm_cell/kernel/Initializer/random_uniform/sub"
  attr {
    key: "T"
    value {
      type: DT_FLOAT
    }
  }
  attr {
    key: "_class"
    value {
      list {
        s: "loc:@seq2seq/encoder/rnn/multi_rnn_cell/cell_0/lstm_cell/kernel"
      }
    }
  }
  attr {
    key: "_output_shapes"
    value {
      list {
        shape {
          dim {
            size: 1024
          }
          dim {
            size: 2048
          }
        }
      }
    }
  }
}
node {
  name: "seq2seq/encoder/rnn/multi_rnn_cell/cell_0/lstm_cell/kernel/Initializer/random_uniform"
  op: "Add"
  input: "seq2seq/encoder/rnn/multi_rnn_cell/cell_0/lstm_cell/kernel/Initializer/random_uniform/mul"
  input: "seq2seq/encoder/rnn/multi_rnn_cell/cell_0/lstm_cell/kernel/Initializer/random_uniform/min"
  attr {
    key: "T"
    value {
      type: DT_FLOAT
    }
  }
  attr {
    key: "_class"
    value {
      list {
        s: "loc:@seq2seq/encoder/rnn/multi_rnn_cell/cell_0/lstm_cell/kernel"
      }
    }
  }
  attr {
    key: "_output_shapes"
    value {
      list {
        shape {
          dim {
            size: 1024
          }
          dim {
            size: 2048
          }
        }
      }
    }
  }
}
node {
  name: "seq2seq/encoder/rnn/multi_rnn_cell/cell_0/lstm_cell/kernel"
  op: "VarHandleOp"
  device: "/device:GPU:0"
  attr {
    key: "_class"
    value {
      list {
        s: "loc:@seq2seq/encoder/rnn/multi_rnn_cell/cell_0/lstm_cell/kernel"
      }
    }
  }
  attr {
    key: "_output_shapes"
    value {
      list {
        shape {
        }
      }
    }
  }
  attr {
    key: "container"
    value {
      s: ""
    }
  }
  attr {
    key: "dtype"
    value {
      type: DT_FLOAT
    }
  }
  attr {
    key: "shape"
    value {
      shape {
        dim {
          size: 1024
        }
        dim {
          size: 2048
        }
      }
    }
  }
  attr {
    key: "shared_name"
    value {
      s: "seq2seq/encoder/rnn/multi_rnn_cell/cell_0/lstm_cell/kernel"
    }
  }
}
node {
  name: "seq2seq/encoder/rnn/multi_rnn_cell/cell_0/lstm_cell/kernel/IsInitialized/VarIsInitializedOp"
  op: "VarIsInitializedOp"
  input: "seq2seq/encoder/rnn/multi_rnn_cell/cell_0/lstm_cell/kernel"
  device: "/device:GPU:0"
  attr {
    key: "_output_shapes"
    value {
      list {
        shape {
        }
      }
    }
  }
}
node {
  name: "seq2seq/encoder/rnn/multi_rnn_cell/cell_0/lstm_cell/kernel/Assign"
  op: "AssignVariableOp"
  input: "seq2seq/encoder/rnn/multi_rnn_cell/cell_0/lstm_cell/kernel"
  input: "seq2seq/encoder/rnn/multi_rnn_cell/cell_0/lstm_cell/kernel/Initializer/random_uniform"
  device: "/device:GPU:0"
  attr {
    key: "_class"
    value {
      list {
        s: "loc:@seq2seq/encoder/rnn/multi_rnn_cell/cell_0/lstm_cell/kernel"
      }
    }
  }
  attr {
    key: "dtype"
    value {
      type: DT_FLOAT
    }
  }
}
node {
  name: "seq2seq/encoder/rnn/multi_rnn_cell/cell_0/lstm_cell/kernel/Read/ReadVariableOp"
  op: "ReadVariableOp"
  input: "seq2seq/encoder/rnn/multi_rnn_cell/cell_0/lstm_cell/kernel"
  device: "/device:GPU:0"
  attr {
    key: "_class"
    value {
      list {
        s: "loc:@seq2seq/encoder/rnn/multi_rnn_cell/cell_0/lstm_cell/kernel"
      }
    }
  }
  attr {
    key: "_output_shapes"
    value {
      list {
        shape {
          dim {
            size: 1024
          }
          dim {
            size: 2048
          }
        }
      }
    }
  }
  attr {
    key: "dtype"
    value {
      type: DT_FLOAT
    }
  }
}
node {
  name: "seq2seq/encoder/rnn/multi_rnn_cell/cell_0/lstm_cell/kernel/Read/Identity"
  op: "Identity"
  input: "seq2seq/encoder/rnn/multi_rnn_cell/cell_0/lstm_cell/kernel/Read/ReadVariableOp"
  attr {
    key: "T"
    value {
      type: DT_FLOAT
    }
  }
  attr {
    key: "_output_shapes"
    value {
      list {
        shape {
          dim {
            size: 1024
          }
          dim {
            size: 2048
          }
        }
      }
    }
  }
}
node {
  name: "seq2seq/encoder/rnn/multi_rnn_cell/cell_0/lstm_cell/bias/Initializer/zeros/shape_as_tensor"
  op: "Const"
  attr {
    key: "_class"
    value {
      list {
        s: "loc:@seq2seq/encoder/rnn/multi_rnn_cell/cell_0/lstm_cell/bias"
      }
    }
  }
  attr {
    key: "_output_shapes"
    value {
      list {
        shape {
          dim {
            size: 1
          }
        }
      }
    }
  }
  attr {
    key: "dtype"
    value {
      type: DT_INT32
    }
  }
  attr {
    key: "value"
    value {
      tensor {
        dtype: DT_INT32
        tensor_shape {
          dim {
            size: 1
          }
        }
        int_val: 2048
      }
    }
  }
}
node {
  name: "seq2seq/encoder/rnn/multi_rnn_cell/cell_0/lstm_cell/bias/Initializer/zeros/Const"
  op: "Const"
  attr {
    key: "_class"
    value {
      list {
        s: "loc:@seq2seq/encoder/rnn/multi_rnn_cell/cell_0/lstm_cell/bias"
      }
    }
  }
  attr {
    key: "_output_shapes"
    value {
      list {
        shape {
        }
      }
    }
  }
  attr {
    key: "dtype"
    value {
      type: DT_FLOAT
    }
  }
  attr {
    key: "value"
    value {
      tensor {
        dtype: DT_FLOAT
        tensor_shape {
        }
        float_val: 0.0
      }
    }
  }
}
node {
  name: "seq2seq/encoder/rnn/multi_rnn_cell/cell_0/lstm_cell/bias/Initializer/zeros"
  op: "Fill"
  input: "seq2seq/encoder/rnn/multi_rnn_cell/cell_0/lstm_cell/bias/Initializer/zeros/shape_as_tensor"
  input: "seq2seq/encoder/rnn/multi_rnn_cell/cell_0/lstm_cell/bias/Initializer/zeros/Const"
  attr {
    key: "T"
    value {
      type: DT_FLOAT
    }
  }
  attr {
    key: "_class"
    value {
      list {
        s: "loc:@seq2seq/encoder/rnn/multi_rnn_cell/cell_0/lstm_cell/bias"
      }
    }
  }
  attr {
    key: "_output_shapes"
    value {
      list {
        shape {
          dim {
            size: 2048
          }
        }
      }
    }
  }
  attr {
    key: "index_type"
    value {
      type: DT_INT32
    }
  }
}
node {
  name: "seq2seq/encoder/rnn/multi_rnn_cell/cell_0/lstm_cell/bias"
  op: "VarHandleOp"
  device: "/device:GPU:0"
  attr {
    key: "_class"
    value {
      list {
        s: "loc:@seq2seq/encoder/rnn/multi_rnn_cell/cell_0/lstm_cell/bias"
      }
    }
  }
  attr {
    key: "_output_shapes"
    value {
      list {
        shape {
        }
      }
    }
  }
  attr {
    key: "container"
    value {
      s: ""
    }
  }
  attr {
    key: "dtype"
    value {
      type: DT_FLOAT
    }
  }
  attr {
    key: "shape"
    value {
      shape {
        dim {
          size: 2048
        }
      }
    }
  }
  attr {
    key: "shared_name"
    value {
      s: "seq2seq/encoder/rnn/multi_rnn_cell/cell_0/lstm_cell/bias"
    }
  }
}
node {
  name: "seq2seq/encoder/rnn/multi_rnn_cell/cell_0/lstm_cell/bias/IsInitialized/VarIsInitializedOp"
  op: "VarIsInitializedOp"
  input: "seq2seq/encoder/rnn/multi_rnn_cell/cell_0/lstm_cell/bias"
  device: "/device:GPU:0"
  attr {
    key: "_output_shapes"
    value {
      list {
        shape {
        }
      }
    }
  }
}
node {
  name: "seq2seq/encoder/rnn/multi_rnn_cell/cell_0/lstm_cell/bias/Assign"
  op: "AssignVariableOp"
  input: "seq2seq/encoder/rnn/multi_rnn_cell/cell_0/lstm_cell/bias"
  input: "seq2seq/encoder/rnn/multi_rnn_cell/cell_0/lstm_cell/bias/Initializer/zeros"
  device: "/device:GPU:0"
  attr {
    key: "_class"
    value {
      list {
        s: "loc:@seq2seq/encoder/rnn/multi_rnn_cell/cell_0/lstm_cell/bias"
      }
    }
  }
  attr {
    key: "dtype"
    value {
      type: DT_FLOAT
    }
  }
}
node {
  name: "seq2seq/encoder/rnn/multi_rnn_cell/cell_0/lstm_cell/bias/Read/ReadVariableOp"
  op: "ReadVariableOp"
  input: "seq2seq/encoder/rnn/multi_rnn_cell/cell_0/lstm_cell/bias"
  device: "/device:GPU:0"
  attr {
    key: "_class"
    value {
      list {
        s: "loc:@seq2seq/encoder/rnn/multi_rnn_cell/cell_0/lstm_cell/bias"
      }
    }
  }
  attr {
    key: "_output_shapes"
    value {
      list {
        shape {
          dim {
            size: 2048
          }
        }
      }
    }
  }
  attr {
    key: "dtype"
    value {
      type: DT_FLOAT
    }
  }
}
node {
  name: "seq2seq/encoder/rnn/multi_rnn_cell/cell_0/lstm_cell/bias/Read/Identity"
  op: "Identity"
  input: "seq2seq/encoder/rnn/multi_rnn_cell/cell_0/lstm_cell/bias/Read/ReadVariableOp"
  attr {
    key: "T"
    value {
      type: DT_FLOAT
    }
  }
  attr {
    key: "_output_shapes"
    value {
      list {
        shape {
          dim {
            size: 2048
          }
        }
      }
    }
  }
}
node {
  name: "seq2seq/encoder_1/rnn/while/rnn/multi_rnn_cell/cell_0/lstm_cell/concat/axis"
  op: "Const"
  input: "^seq2seq/encoder_1/rnn/while/Identity"
  device: "/device:GPU:0"
  attr {
    key: "_output_shapes"
    value {
      list {
        shape {
        }
      }
    }
  }
  attr {
    key: "dtype"
    value {
      type: DT_INT32
    }
  }
  attr {
    key: "value"
    value {
      tensor {
        dtype: DT_INT32
        tensor_shape {
        }
        int_val: 1
      }
    }
  }
}
node {
  name: "seq2seq/encoder_1/rnn/while/rnn/multi_rnn_cell/cell_0/lstm_cell/concat"
  op: "ConcatV2"
  input: "seq2seq/encoder_1/rnn/while/TensorArrayReadV3"
  input: "seq2seq/encoder_1/rnn/while/Identity_4"
  input: "seq2seq/encoder_1/rnn/while/rnn/multi_rnn_cell/cell_0/lstm_cell/concat/axis"
  device: "/device:GPU:0"
  attr {
    key: "N"
    value {
      i: 2
    }
  }
  attr {
    key: "T"
    value {
      type: DT_FLOAT
    }
  }
  attr {
    key: "Tidx"
    value {
      type: DT_INT32
    }
  }
  attr {
    key: "_output_shapes"
    value {
      list {
        shape {
          dim {
            size: -1
          }
          dim {
            size: 1024
          }
        }
      }
    }
  }
}
node {
  name: "seq2seq/encoder_1/rnn/while/rnn/multi_rnn_cell/cell_0/lstm_cell/MatMul"
  op: "MatMul"
  input: "seq2seq/encoder_1/rnn/while/rnn/multi_rnn_cell/cell_0/lstm_cell/concat"
  input: "seq2seq/encoder_1/rnn/while/rnn/multi_rnn_cell/cell_0/lstm_cell/MatMul/Enter"
  device: "/device:GPU:0"
  attr {
    key: "T"
    value {
      type: DT_FLOAT
    }
  }
  attr {
    key: "_output_shapes"
    value {
      list {
        shape {
          dim {
            size: -1
          }
          dim {
            size: 2048
          }
        }
      }
    }
  }
  attr {
    key: "transpose_a"
    value {
      b: false
    }
  }
  attr {
    key: "transpose_b"
    value {
      b: false
    }
  }
}
node {
  name: "seq2seq/encoder_1/rnn/while/rnn/multi_rnn_cell/cell_0/lstm_cell/MatMul/Enter"
  op: "Enter"
  input: "seq2seq/encoder/rnn/multi_rnn_cell/cell_0/lstm_cell/kernel/Read/Identity"
  device: "/device:GPU:0"
  attr {
    key: "T"
    value {
      type: DT_FLOAT
    }
  }
  attr {
    key: "_output_shapes"
    value {
      list {
        shape {
          dim {
            size: 1024
          }
          dim {
…
        string_val: ""
        string_val: ""
        string_val: ""
        string_val: ""
        string_val: ""
        string_val: ""
        string_val: ""
        string_val: ""
        string_val: ""
      }
    }
  }
}
node {
  name: "save/RestoreV2_1"
  op: "RestoreV2"
  input: "save/Const"
  input: "save/RestoreV2_1/tensor_names"
  input: "save/RestoreV2_1/shape_and_slices"
  device: "/device:CPU:0"
  attr {
    key: "_output_shapes"
    value {
      list {
        shape {
          unknown_rank: true
        }
        shape {
          unknown_rank: true
        }
        shape {
          unknown_rank: true
        }
        shape {
          unknown_rank: true
        }
        shape {
          unknown_rank: true
        }
        shape {
          unknown_rank: true
        }
        shape {
          unknown_rank: true
        }
        shape {
          unknown_rank: true
        }
        shape {
          unknown_rank: true
        }
        shape {
          unknown_rank: true
        }
        shape {
          unknown_rank: true
        }
        shape {
          unknown_rank: true
        }
        shape {
          unknown_rank: true
        }
        shape {
          unknown_rank: true
        }
      }
    }
  }
  attr {
    key: "dtypes"
    value {
      list {
        type: DT_FLOAT
        type: DT_FLOAT
        type: DT_FLOAT
        type: DT_FLOAT
        type: DT_FLOAT
        type: DT_FLOAT
        type: DT_FLOAT
        type: DT_FLOAT
        type: DT_FLOAT
        type: DT_FLOAT
        type: DT_FLOAT
        type: DT_FLOAT
        type: DT_FLOAT
        type: DT_FLOAT
      }
    }
  }
}
node {
  name: "save/Assign_1"
  op: "Assign"
  input: "seq2seq/decoder/decoder/attention_wrapper/attention_layer/kernel"
  input: "save/RestoreV2_1"
  device: "/device:GPU:0"
  attr {
    key: "T"
    value {
      type: DT_FLOAT
    }
  }
  attr {
    key: "_class"
    value {
      list {
        s: "loc:@seq2seq/decoder/decoder/attention_wrapper/attention_layer/kernel"
      }
    }
  }
  attr {
    key: "_output_shapes"
    value {
      list {
        shape {
          dim {
            size: 1024
          }
          dim {
            size: 512
          }
        }
      }
    }
  }
  attr {
    key: "use_locking"
    value {
      b: true
    }
  }
  attr {
    key: "validate_shape"
    value {
      b: true
    }
  }
}
node {
  name: "save/Identity_1"
  op: "Identity"
  input: "save/RestoreV2_1:1"
  device: "/device:GPU:0"
  attr {
    key: "T"
    value {
      type: DT_FLOAT
    }
  }
  attr {
    key: "_output_shapes"
    value {
      list {
        shape {
          unknown_rank: true
        }
      }
    }
  }
}
node {
  name: "save/AssignVariableOp"
  op: "AssignVariableOp"
  input: "seq2seq/decoder/decoder/attention_wrapper/multi_rnn_cell/cell_0/lstm_cell/bias"
  input: "save/Identity_1"
  device: "/device:GPU:0"
  attr {
    key: "dtype"
    value {
      type: DT_FLOAT
    }
  }
}
node {
  name: "save/Identity_2"
  op: "Identity"
  input: "save/RestoreV2_1:2"
  device: "/device:GPU:0"
  attr {
    key: "T"
    value {
      type: DT_FLOAT
    }
  }
  attr {
    key: "_output_shapes"
    value {
      list {
        shape {
          unknown_rank: true
        }
      }
    }
  }
}
node {
  name: "save/AssignVariableOp_1"
  op: "AssignVariableOp"
  input: "seq2seq/decoder/decoder/attention_wrapper/multi_rnn_cell/cell_0/lstm_cell/kernel"
  input: "save/Identity_2"
  device: "/device:GPU:0"
  attr {
    key: "dtype"
    value {
      type: DT_FLOAT
    }
  }
}
node {
  name: "save/Identity_3"
  op: "Identity"
  input: "save/RestoreV2_1:3"
  device: "/device:GPU:0"
  attr {
    key: "T"
    value {
      type: DT_FLOAT
    }
  }
  attr {
    key: "_output_shapes"
    value {
      list {
        shape {
          unknown_rank: true
        }
      }
    }
  }
}
node {
  name: "save/AssignVariableOp_2"
  op: "AssignVariableOp"
  input: "seq2seq/decoder/decoder/attention_wrapper/multi_rnn_cell/cell_1/lstm_cell/bias"
  input: "save/Identity_3"
  device: "/device:GPU:0"
  attr {
    key: "dtype"
    value {
      type: DT_FLOAT
    }
  }
}
node {
  name: "save/Identity_4"
  op: "Identity"
  input: "save/RestoreV2_1:4"
  device: "/device:GPU:0"
  attr {
    key: "T"
    value {
      type: DT_FLOAT
    }
  }
  attr {
    key: "_output_shapes"
    value {
      list {
        shape {
          unknown_rank: true
        }
      }
    }
  }
}
node {
  name: "save/AssignVariableOp_3"
  op: "AssignVariableOp"
  input: "seq2seq/decoder/decoder/attention_wrapper/multi_rnn_cell/cell_1/lstm_cell/kernel"
  input: "save/Identity_4"
  device: "/device:GPU:0"
  attr {
    key: "dtype"
    value {
      type: DT_FLOAT
    }
  }
}
node {
  name: "save/Assign_2"
  op: "Assign"
  input: "seq2seq/decoder/dense/bias"
  input: "save/RestoreV2_1:5"
  device: "/device:GPU:0"
  attr {
    key: "T"
    value {
      type: DT_FLOAT
    }
  }
  attr {
    key: "_class"
    value {
      list {
        s: "loc:@seq2seq/decoder/dense/bias"
      }
    }
  }
  attr {
    key: "_output_shapes"
    value {
      list {
        shape {
          dim {
            size: 42508
          }
        }
      }
    }
  }
  attr {
    key: "use_locking"
    value {
      b: true
    }
  }
  attr {
    key: "validate_shape"
    value {
      b: true
    }
  }
}
node {
  name: "save/Assign_3"
  op: "Assign"
  input: "seq2seq/decoder/dense/kernel"
  input: "save/RestoreV2_1:6"
  device: "/device:GPU:0"
  attr {
    key: "T"
    value {
      type: DT_FLOAT
    }
  }
  attr {
    key: "_class"
    value {
      list {
        s: "loc:@seq2seq/decoder/dense/kernel"
      }
    }
  }
  attr {
    key: "_output_shapes"
    value {
      list {
        shape {
          dim {
            size: 512
          }
          dim {
            size: 42508
          }
        }
      }
    }
  }
  attr {
    key: "use_locking"
    value {
      b: true
    }
  }
  attr {
    key: "validate_shape"
    value {
      b: true
    }
  }
}
node {
  name: "save/Assign_4"
  op: "Assign"
  input: "seq2seq/decoder/memory_layer/kernel"
  input: "save/RestoreV2_1:7"
  device: "/device:GPU:0"
  attr {
    key: "T"
    value {
      type: DT_FLOAT
    }
  }
  attr {
    key: "_class"
    value {
      list {
        s: "loc:@seq2seq/decoder/memory_layer/kernel"
      }
    }
  }
  attr {
    key: "_output_shapes"
    value {
      list {
        shape {
          dim {
            size: 512
          }
          dim {
            size: 512
          }
        }
      }
    }
  }
  attr {
    key: "use_locking"
    value {
      b: true
    }
  }
  attr {
    key: "validate_shape"
    value {
      b: true
    }
  }
}
node {
  name: "save/Assign_5"
  op: "Assign"
  input: "seq2seq/decoder/w_embs"
  input: "save/RestoreV2_1:8"
  device: "/device:GPU:0"
  attr {
    key: "T"
    value {
      type: DT_FLOAT
    }
  }
  attr {
    key: "_class"
    value {
      list {
        s: "loc:@seq2seq/decoder/w_embs"
      }
    }
  }
  attr {
    key: "_output_shapes"
    value {
      list {
        shape {
          dim {
            size: 42508
          }
          dim {
            size: 512
          }
        }
      }
    }
  }
  attr {
    key: "use_locking"
    value {
      b: true
    }
  }
  attr {
    key: "validate_shape"
    value {
      b: true
    }
  }
}
node {
  name: "save/Identity_5"
  op: "Identity"
  input: "save/RestoreV2_1:9"
  device: "/device:GPU:0"
  attr {
    key: "T"
    value {
      type: DT_FLOAT
    }
  }
  attr {
    key: "_output_shapes"
    value {
      list {
        shape {
          unknown_rank: true
        }
      }
    }
  }
}
node {
  name: "save/AssignVariableOp_4"
  op: "AssignVariableOp"
  input: "seq2seq/encoder/rnn/multi_rnn_cell/cell_0/lstm_cell/bias"
  input: "save/Identity_5"
  device: "/device:GPU:0"
  attr {
    key: "dtype"
    value {
      type: DT_FLOAT
    }
  }
}
node {
  name: "save/Identity_6"
  op: "Identity"
  input: "save/RestoreV2_1:10"
  device: "/device:GPU:0"
  attr {
    key: "T"
    value {
      type: DT_FLOAT
    }
  }
  attr {
    key: "_output_shapes"
    value {
      list {
        shape {
          unknown_rank: true
        }
      }
    }
  }
}
node {
  name: "save/AssignVariableOp_5"
  op: "AssignVariableOp"
  input: "seq2seq/encoder/rnn/multi_rnn_cell/cell_0/lstm_cell/kernel"
  input: "save/Identity_6"
  device: "/device:GPU:0"
  attr {
    key: "dtype"
    value {
      type: DT_FLOAT
    }
  }
}
node {
  name: "save/Identity_7"
  op: "Identity"
  input: "save/RestoreV2_1:11"
  device: "/device:GPU:0"
  attr {
    key: "T"
    value {
      type: DT_FLOAT
    }
  }
  attr {
    key: "_output_shapes"
    value {
      list {
        shape {
          unknown_rank: true
        }
      }
    }
  }
}
node {
  name: "save/AssignVariableOp_6"
  op: "AssignVariableOp"
  input: "seq2seq/encoder/rnn/multi_rnn_cell/cell_1/lstm_cell/bias"
  input: "save/Identity_7"
  device: "/device:GPU:0"
  attr {
    key: "dtype"
    value {
      type: DT_FLOAT
    }
  }
}
node {
  name: "save/Identity_8"
  op: "Identity"
  input: "save/RestoreV2_1:12"
  device: "/device:GPU:0"
  attr {
    key: "T"
    value {
      type: DT_FLOAT
    }
  }
  attr {
    key: "_output_shapes"
    value {
      list {
        shape {
          unknown_rank: true
        }
      }
    }
  }
}
node {
  name: "save/AssignVariableOp_7"
  op: "AssignVariableOp"
  input: "seq2seq/encoder/rnn/multi_rnn_cell/cell_1/lstm_cell/kernel"
  input: "save/Identity_8"
  device: "/device:GPU:0"
  attr {
    key: "dtype"
    value {
      type: DT_FLOAT
    }
  }
}
node {
  name: "save/Assign_6"
  op: "Assign"
  input: "seq2seq/encoder/w_embs"
  input: "save/RestoreV2_1:13"
  device: "/device:GPU:0"
  attr {
    key: "T"
    value {
      type: DT_FLOAT
    }
  }
  attr {
    key: "_class"
    value {
      list {
        s: "loc:@seq2seq/encoder/w_embs"
      }
    }
  }
  attr {
    key: "_output_shapes"
    value {
      list {
        shape {
          dim {
            size: 24766
          }
          dim {
            size: 512
          }
        }
      }
    }
  }
  attr {
    key: "use_locking"
    value {
      b: true
    }
  }
  attr {
    key: "validate_shape"
    value {
      b: true
    }
  }
}
node {
  name: "save/restore_shard_1"
  op: "NoOp"
  input: "^save/AssignVariableOp"
  input: "^save/AssignVariableOp_1"
  input: "^save/AssignVariableOp_2"
  input: "^save/AssignVariableOp_3"
  input: "^save/AssignVariableOp_4"
  input: "^save/AssignVariableOp_5"
  input: "^save/AssignVariableOp_6"
  input: "^save/AssignVariableOp_7"
  input: "^save/Assign_1"
  input: "^save/Assign_2"
  input: "^save/Assign_3"
  input: "^save/Assign_4"
  input: "^save/Assign_5"
  input: "^save/Assign_6"
  device: "/device:GPU:0"
}
node {
  name: "save/restore_all/NoOp"
  op: "NoOp"
  input: "^save/restore_shard"
}
node {
  name: "save/restore_all/NoOp_1"
  op: "NoOp"
  input: "^save/restore_shard_1"
  device: "/device:GPU:0"
}
node {
  name: "save/restore_all"
  op: "NoOp"
  input: "^save/restore_all/NoOp"
  input: "^save/restore_all/NoOp_1"
}
library {
  function {
    signature {
      name: "tf_data_experimental_group_by_window__reduce_func_145"
      input_arg {
        name: "arg0"
        type: DT_INT64
      }
      input_arg {
        name: "arg1"
        type: DT_VARIANT
      }
      output_arg {
        name: "paddedbatchdatasetv2"
        type: DT_VARIANT
      }
      description: "Wrapper for passing nested structures to and from tf.data functions."
    }
    node_def {
      name: "batch_size"
      op: "Const"
      device: "/device:CPU:0"
      attr {
        key: "dtype"
        value {
          type: DT_INT64
        }
      }
      attr {
        key: "value"
        value {
          tensor {
            dtype: DT_INT64
            tensor_shape {
            }
            int64_val: 32
          }
        }
      }
    }
    node_def {
      name: "Const"
      op: "Const"
      device: "/device:CPU:0"
      attr {
        key: "dtype"
        value {
          type: DT_INT64
        }
      }
      attr {
        key: "value"
        value {
          tensor {
            dtype: DT_INT64
            tensor_shape {
              dim {
                size: 1
              }
            }
            int64_val: -1
          }
        }
      }
    }
    node_def {
      name: "Const_1"
      op: "Const"
      device: "/device:CPU:0"
      attr {
        key: "dtype"
        value {
          type: DT_INT64
        }
      }
      attr {
        key: "value"
        value {
          tensor {
            dtype: DT_INT64
            tensor_shape {
              dim {
              }
            }
          }
        }
      }
    }
    node_def {
      name: "Const_2"
      op: "Const"
      device: "/device:CPU:0"
      attr {
        key: "dtype"
        value {
          type: DT_INT64
        }
      }
      attr {
        key: "value"
        value {
          tensor {
            dtype: DT_INT64
            tensor_shape {
              dim {
                size: 1
              }
            }
            int64_val: -1
          }
        }
      }
    }
    node_def {
      name: "Const_3"
      op: "Const"
      device: "/device:CPU:0"
      attr {
        key: "dtype"
        value {
          type: DT_INT64
        }
      }
      attr {
        key: "value"
        value {
          tensor {
            dtype: DT_INT64
            tensor_shape {
              dim {
                size: 1
              }
            }
            int64_val: -1
          }
        }
      }
    }
    node_def {
      name: "Const_4"
      op: "Const"
      device: "/device:CPU:0"
      attr {
        key: "dtype"
        value {
          type: DT_INT64
        }
      }
      attr {
        key: "value"
        value {
          tensor {
            dtype: DT_INT64
            tensor_shape {
              dim {
                size: 1
              }
            }
            int64_val: -1
          }
        }
      }
    }
    node_def {
      name: "Const_5"
      op: "Const"
      device: "/device:CPU:0"
      attr {
        key: "dtype"
        value {
          type: DT_INT64
        }
      }
      attr {
        key: "value"
        value {
          tensor {
            dtype: DT_INT64
            tensor_shape {
              dim {
              }
            }
          }
        }
      }
    }
    node_def {
      name: "Const_6"
      op: "Const"
      device: "/device:CPU:0"
      attr {
        key: "dtype"
        value {
          type: DT_INT64
        }
      }
      attr {
        key: "value"
        value {
          tensor {
            dtype: DT_INT64
            tensor_shape {
              dim {
                size: 1
              }
            }
            int64_val: -1
          }
        }
      }
    }
    node_def {
      name: "padding_value"
      op: "Const"
      device: "/device:CPU:0"
      attr {
        key: "dtype"
        value {
          type: DT_INT64
        }
      }
      attr {
        key: "value"
        value {
          tensor {
            dtype: DT_INT64
            tensor_shape {
            }
            int64_val: 0
          }
        }
      }
    }
    node_def {
      name: "padding_value_1"
      op: "Const"
      device: "/device:CPU:0"
      attr {
        key: "dtype"
        value {
          type: DT_INT32
        }
      }
      attr {
        key: "value"
        value {
          tensor {
            dtype: DT_INT32
            tensor_shape {
            }
            int_val: 0
          }
        }
      }
    }
    node_def {
      name: "padding_value_2"
      op: "Const"
      device: "/device:CPU:0"
      attr {
        key: "dtype"
        value {
          type: DT_STRING
        }
      }
      attr {
        key: "value"
        value {
          tensor {
            dtype: DT_STRING
            tensor_shape {
            }
            string_val: ""
          }
        }
      }
    }
    node_def {
      name: "padding_value_3"
      op: "Const"
      device: "/device:CPU:0"
      attr {
        key: "dtype"
        value {
          type: DT_INT64
        }
      }
      attr {
        key: "value"
        value {
          tensor {
            dtype: DT_INT64
            tensor_shape {
            }
            int64_val: 0
          }
        }
      }
    }
    node_def {
      name: "padding_value_4"
      op: "Const"
      device: "/device:CPU:0"
      attr {
        key: "dtype"
        value {
          type: DT_INT64
        }
      }
      attr {
        key: "value"
        value {
          tensor {
            dtype: DT_INT64
            tensor_shape {
            }
            int64_val: 0
          }
        }
      }
    }
    node_def {
      name: "padding_value_5"
      op: "Const"
      device: "/device:CPU:0"
      attr {
        key: "dtype"
        value {
          type: DT_INT32
        }
      }
      attr {
        key: "value"
        value {
          tensor {
            dtype: DT_INT32
            tensor_shape {
            }
            int_val: 0
          }
        }
      }
    }
    node_def {
      name: "padding_value_6"
      op: "Const"
      device: "/device:CPU:0"
      attr {
        key: "dtype"
        value {
          type: DT_STRING
        }
      }
      attr {
        key: "value"
        value {
          tensor {
            dtype: DT_STRING
            tensor_shape {
            }
            string_val: ""
          }
        }
      }
    }
    node_def {
      name: "drop_remainder"
      op: "Const"
      device: "/device:CPU:0"
      attr {
        key: "dtype"
        value {
          type: DT_BOOL
        }
      }
      attr {
        key: "value"
        value {
          tensor {
            dtype: DT_BOOL
            tensor_shape {
            }
            bool_val: false
          }
        }
      }
    }
    node_def {
      name: "PaddedBatchDatasetV2"
      op: "PaddedBatchDatasetV2"
      input: "arg1"
      input: "batch_size:output:0"
      input: "Const:output:0"
      input: "Const_1:output:0"
      input: "Const_2:output:0"
      input: "Const_3:output:0"
      input: "Const_4:output:0"
      input: "Const_5:output:0"
      input: "Const_6:output:0"
      input: "padding_value:output:0"
      input: "padding_value_1:output:0"
      input: "padding_value_2:output:0"
      input: "padding_value_3:output:0"
      input: "padding_value_4:output:0"
      input: "padding_value_5:output:0"
      input: "padding_value_6:output:0"
      input: "drop_remainder:output:0"
      device: "/device:CPU:0"
      attr {
        key: "N"
        value {
          i: 7
        }
      }
      attr {
        key: "Toutput_types"
        value {
          list {
            type: DT_INT64
            type: DT_INT32
            type: DT_STRING
            type: DT_INT64
            type: DT_INT64
            type: DT_INT32
            type: DT_STRING
          }
        }
      }
      attr {
        key: "output_shapes"
        value {
          list {
            shape {
              dim {
                size: -1
              }
              dim {
                size: -1
              }
            }
            shape {
              dim {
                size: -1
              }
            }
            shape {
              dim {
                size: -1
              }
              dim {
                size: -1
              }
            }
            shape {
              dim {
                size: -1
              }
              dim {
                size: -1
              }
            }
            shape {
              dim {
                size: -1
              }
              dim {
                size: -1
              }
            }
            shape {
              dim {
                size: -1
              }
            }
            shape {
              dim {
                size: -1
              }
              dim {
                size: -1
              }
            }
          }
        }
      }
    }
    ret {
      key: "paddedbatchdatasetv2"
      value: "PaddedBatchDatasetV2:handle:0"
    }
  }
  function {
    signature {
      name: "tf_data_experimental_group_by_window_window_size_func_wrapper_166"
      input_arg {
        name: "arg0"
        type: DT_INT64
      }
      output_arg {
        name: "const"
        type: DT_INT64
      }
      description: "Wrapper for passing nested structures to and from tf.data functions."
    }
    node_def {
      name: "Const"
      op: "Const"
      device: "/device:CPU:0"
      attr {
        key: "dtype"
        value {
          type: DT_INT64
        }
      }
      attr {
        key: "value"
        value {
          tensor {
            dtype: DT_INT64
            tensor_shape {
            }
            int64_val: 32
          }
        }
      }
    }
    ret {
      key: "const"
      value: "Const:output:0"
    }
  }
  function {
    signature {
      name: "tf_data_experimental_group_by_window_key_func_wrapper_128"
      input_arg {
        name: "arg0"
        type: DT_INT64
      }
      input_arg {
        name: "arg1"
        type: DT_INT32
      }
      input_arg {
        name: "arg2"
        type: DT_STRING
      }
      input_arg {
        name: "arg3"
        type: DT_INT64
      }
      input_arg {
        name: "arg4"
        type: DT_INT64
      }
      input_arg {
        name: "arg5"
        type: DT_INT32
      }
      input_arg {
        name: "arg6"
        type: DT_STRING
      }
      output_arg {
        name: "cast"
        type: DT_INT64
      }
      description: "Wrapper for passing nested structures to and from tf.data functions."
    }
    node_def {
      name: "Const"
      op: "Const"
      device: "/device:CPU:0"
      attr {
        key: "dtype"
        value {
          type: DT_INT32
        }
      }
      attr {
        key: "value"
        value {
          tensor {
            dtype: DT_INT32
            tensor_shape {
            }
            int_val: 0
          }
        }
      }
    }
    node_def {
      name: "floordiv/y"
      op: "Const"
      device: "/device:CPU:0"
      attr {
        key: "dtype"
        value {
          type: DT_INT32
        }
      }
      attr {
        key: "value"
        value {
          tensor {
            dtype: DT_INT32
            tensor_shape {
            }
            int_val: 1
          }
        }
      }
    }
    node_def {
      name: "floordiv"
      op: "FloorDiv"
      input: "arg1"
      input: "floordiv/y:output:0"
      device: "/device:CPU:0"
      attr {
        key: "T"
        value {
          type: DT_INT32
        }
      }
    }
    node_def {
      name: "Maximum"
      op: "Maximum"
      input: "Const:output:0"
      input: "floordiv:z:0"
      device: "/device:CPU:0"
      attr {
        key: "T"
        value {
          type: DT_INT32
        }
      }
    }
    node_def {
      name: "floordiv_1/y"
      op: "Const"
      device: "/device:CPU:0"
      attr {
        key: "dtype"
        value {
          type: DT_INT32
        }
      }
      attr {
        key: "value"
        value {
          tensor {
            dtype: DT_INT32
            tensor_shape {
            }
            int_val: 1
          }
        }
      }
    }
    node_def {
      name: "floordiv_1"
      op: "FloorDiv"
      input: "arg5"
      input: "floordiv_1/y:output:0"
      device: "/device:CPU:0"
      attr {
        key: "T"
        value {
          type: DT_INT32
        }
      }
    }
    node_def {
      name: "Maximum_1"
      op: "Maximum"
      input: "Maximum:z:0"
      input: "floordiv_1:z:0"
      device: "/device:CPU:0"
      attr {
        key: "T"
        value {
          type: DT_INT32
        }
      }
    }
    node_def {
      name: "Cast"
      op: "Cast"
      input: "Maximum_1:z:0"
      device: "/device:CPU:0"
      attr {
        key: "DstT"
        value {
          type: DT_INT64
        }
      }
      attr {
        key: "SrcT"
        value {
          type: DT_INT32
        }
      }
      attr {
        key: "Truncate"
        value {
          b: false
        }
      }
    }
    ret {
      key: "cast"
      value: "Cast:y:0"
    }
  }
  function {
    signature {
      name: "Dataset_flat_map_<lambda>_37"
      input_arg {
        name: "arg0"
        type: DT_INT64
      }
      input_arg {
        name: "textlinedataset_placeholder"
        type: DT_STRING
      }
      input_arg {
        name: "textlinedataset_placeholder_1"
        type: DT_STRING
      }
      input_arg {
        name: "textlinedataset_placeholder_2"
        type: DT_INT64
      }
      input_arg {
        name: "textlinedataset_1_placeholder"
        type: DT_STRING
      }
      input_arg {
        name: "textlinedataset_1_placeholder_1"
        type: DT_STRING
      }
      input_arg {
        name: "textlinedataset_1_placeholder_2"
        type: DT_INT64
      }
      output_arg {
        name: "takedataset"
        type: DT_VARIANT
      }
      description: "Wrapper for passing nested structures to and from tf.data functions."
      is_stateful: true
    }
    node_def {
      name: "count"
      op: "Const"
      device: "/device:CPU:0"
      attr {
        key: "dtype"
        value {
          type: DT_INT64
        }
      }
      attr {
        key: "value"
        value {
          tensor {
            dtype: DT_INT64
            tensor_shape {
            }
            int64_val: 100000
          }
        }
      }
    }
    node_def {
      name: "TextLineDataset"
      op: "TextLineDataset"
      input: "textlinedataset_placeholder"
      input: "textlinedataset_placeholder_1"
      input: "textlinedataset_placeholder_2"
      device: "/device:CPU:0"
    }
    node_def {
      name: "TextLineDataset_1"
      op: "TextLineDataset"
      input: "textlinedataset_1_placeholder"
      input: "textlinedataset_1_placeholder_1"
      input: "textlinedataset_1_placeholder_2"
      device: "/device:CPU:0"
    }
    node_def {
      name: "ZipDataset"
      op: "ZipDataset"
      input: "TextLineDataset:handle:0"
      input: "TextLineDataset_1:handle:0"
      device: "/device:CPU:0"
      attr {
        key: "N"
        value {
          i: 2
        }
      }
      attr {
        key: "output_shapes"
        value {
          list {
            shape {
            }
            shape {
            }
          }
        }
      }
      attr {
        key: "output_types"
        value {
          list {
            type: DT_STRING
            type: DT_STRING
          }
        }
      }
    }
    node_def {
      name: "SkipDataset"
      op: "SkipDataset"
      input: "ZipDataset:handle:0"
      input: "arg0"
      device: "/device:CPU:0"
      attr {
        key: "output_shapes"
        value {
          list {
            shape {
            }
            shape {
            }
          }
        }
      }
      attr {
        key: "output_types"
        value {
          list {
            type: DT_STRING
            type: DT_STRING
          }
        }
      }
    }
    node_def {
      name: "TakeDataset"
      op: "TakeDataset"
      input: "SkipDataset:handle:0"
      input: "count:output:0"
      device: "/device:CPU:0"
      attr {
        key: "output_shapes"
        value {
          list {
            shape {
            }
            shape {
            }
          }
        }
      }
      attr {
        key: "output_types"
        value {
          list {
            type: DT_STRING
            type: DT_STRING
          }
        }
      }
    }
    ret {
      key: "takedataset"
      value: "TakeDataset:handle:0"
    }
  }
  function {
    signature {
      name: "Dataset_filter__predicate_104"
      input_arg {
        name: "arg0"
        type: DT_INT64
      }
      input_arg {
        name: "arg1"
        type: DT_INT32
      }
      input_arg {
        name: "arg2"
        type: DT_STRING
      }
      input_arg {
        name: "arg3"
        type: DT_INT64
      }
      input_arg {
        name: "arg4"
        type: DT_INT64
      }
      input_arg {
        name: "arg5"
        type: DT_INT32
      }
      input_arg {
        name: "arg6"
        type: DT_STRING
      }
      output_arg {
        name: "all"
        type: DT_BOOL
      }
      description: "Wrapper for passing nested structures to and from tf.data functions."
    }
    node_def {
      name: "Greater/y"
      op: "Const"
      device: "/device:CPU:0"
      attr {
        key: "dtype"
        value {
          type: DT_INT32
        }
      }
      attr {
        key: "value"
        value {
          tensor {
            dtype: DT_INT32
            tensor_shape {
            }
            int_val: 0
          }
        }
      }
    }
    node_def {
      name: "Greater"
      op: "Greater"
      input: "arg1"
      input: "Greater/y:output:0"
      device: "/device:CPU:0"
      attr {
        key: "T"
        value {
          type: DT_INT32
        }
      }
    }
    node_def {
      name: "LessEqual/y"
      op: "Const"
      device: "/device:CPU:0"
      attr {
        key: "dtype"
        value {
          type: DT_INT32
        }
      }
      attr {
        key: "value"
        value {
          tensor {
            dtype: DT_INT32
            tensor_shape {
            }
            int_val: 100
          }
        }
      }
    }
    node_def {
      name: "LessEqual"
      op: "LessEqual"
      input: "arg1"
      input: "LessEqual/y:output:0"
      device: "/device:CPU:0"
      attr {
        key: "T"
        value {
          type: DT_INT32
        }
      }
    }
    node_def {
      name: "Greater_1/y"
      op: "Const"
      device: "/device:CPU:0"
      attr {
        key: "dtype"
        value {
          type: DT_INT32
        }
      }
      attr {
        key: "value"
        value {
          tensor {
            dtype: DT_INT32
            tensor_shape {
            }
            int_val: 0
          }
        }
      }
    }
    node_def {
      name: "Greater_1"
      op: "Greater"
      input: "arg5"
      input: "Greater_1/y:output:0"
      device: "/device:CPU:0"
      attr {
        key: "T"
        value {
          type: DT_INT32
        }
      }
    }
    node_def {
      name: "LessEqual_1/y"
      op: "Const"
      device: "/device:CPU:0"
      attr {
        key: "dtype"
        value {
          type: DT_INT32
        }
      }
      attr {
        key: "value"
        value {
          tensor {
            dtype: DT_INT32
            tensor_shape {
            }
            int_val: 100
          }
        }
      }
    }
    node_def {
      name: "LessEqual_1"
      op: "LessEqual"
      input: "arg5"
      input: "LessEqual_1/y:output:0"
      device: "/device:CPU:0"
      attr {
        key: "T"
        value {
          type: DT_INT32
        }
      }
    }
    node_def {
      name: "Rank/packed"
      op: "Pack"
      input: "Greater:z:0"
      input: "LessEqual:z:0"
      input: "Greater_1:z:0"
      input: "LessEqual_1:z:0"
      device: "/device:CPU:0"
      attr {
        key: "N"
        value {
          i: 4
        }
      }
      attr {
        key: "T"
        value {
          type: DT_BOOL
        }
      }
      attr {
        key: "axis"
        value {
          i: 0
        }
      }
    }
    node_def {
      name: "Rank"
      op: "Const"
      device: "/device:CPU:0"
      attr {
        key: "dtype"
        value {
          type: DT_INT32
        }
      }
      attr {
        key: "value"
        value {
          tensor {
            dtype: DT_INT32
            tensor_shape {
            }
            int_val: 1
          }
        }
      }
    }
    node_def {
      name: "range/start"
      op: "Const"
      device: "/device:CPU:0"
      attr {
        key: "dtype"
        value {
          type: DT_INT32
        }
      }
      attr {
        key: "value"
        value {
          tensor {
            dtype: DT_INT32
            tensor_shape {
            }
            int_val: 0
          }
        }
      }
    }
    node_def {
      name: "range/delta"
      op: "Const"
      device: "/device:CPU:0"
      attr {
        key: "dtype"
        value {
          type: DT_INT32
        }
      }
      attr {
        key: "value"
        value {
          tensor {
            dtype: DT_INT32
            tensor_shape {
            }
            int_val: 1
          }
        }
      }
    }
    node_def {
      name: "range"
      op: "Range"
      input: "range/start:output:0"
      input: "Rank:output:0"
      input: "range/delta:output:0"
      device: "/device:CPU:0"
      attr {
        key: "Tidx"
        value {
          type: DT_INT32
        }
      }
    }
    node_def {
      name: "All/input"
      op: "Pack"
      input: "Greater:z:0"
      input: "LessEqual:z:0"
      input: "Greater_1:z:0"
      input: "LessEqual_1:z:0"
      device: "/device:CPU:0"
      attr {
        key: "N"
        value {
          i: 4
        }
      }
      attr {
        key: "T"
        value {
          type: DT_BOOL
        }
      }
      attr {
        key: "axis"
        value {
          i: 0
        }
      }
    }
    node_def {
      name: "All"
      op: "All"
      input: "All/input:output:0"
      input: "range:output:0"
      device: "/device:CPU:0"
      attr {
        key: "Tidx"
        value {
          type: DT_INT32
        }
      }
      attr {
        key: "keep_dims"
        value {
          b: false
        }
      }
    }
    ret {
      key: "all"
      value: "All:output:0"
    }
  }
  function {
    signature {
      name: "Dataset_map_<lambda>_55"
      input_arg {
        name: "arg0"
        type: DT_STRING
      }
      input_arg {
        name: "arg1"
        type: DT_STRING
      }
      input_arg {
        name: "string_to_index_lookup_hash_table_lookup_placeholder"
        type: DT_RESOURCE
      }
      input_arg {
        name: "string_to_index_lookup_hash_table_lookup_placeholder_1"
        type: DT_INT64
      }
      input_arg {
        name: "string_to_index_1_lookup_hash_table_lookup_placeholder"
        type: DT_RESOURCE
      }
      input_arg {
        name: "string_to_index_1_lookup_hash_table_lookup_placeholder_1"
        type: DT_INT64
      }
      output_arg {
        name: "string_to_index_lookup"
        type: DT_INT64
      }
      output_arg {
        name: "strided_slice"
        type: DT_INT32
      }
      output_arg {
        name: "stringsplit"
        type: DT_STRING
      }
      output_arg {
        name: "concat"
        type: DT_INT64
      }
      output_arg {
        name: "concat_1"
        type: DT_INT64
      }
      output_arg {
        name: "add"
        type: DT_INT32
      }
      output_arg {
        name: "stringsplit_1"
        type: DT_STRING
      }
      description: "Wrapper for passing nested structures to and from tf.data functions."
      is_stateful: true
    }
    node_def {
      name: "Const"
      op: "Const"
      device: "/device:CPU:0"
      attr {
        key: "dtype"
        value {
          type: DT_STRING
        }
      }
      attr {
        key: "value"
        value {
          tensor {
            dtype: DT_STRING
            tensor_shape {
            }
            string_val: " "
          }
        }
      }
    }
    node_def {
      name: "packed"
      op: "Pack"
      input: "arg0"
      device: "/device:CPU:0"
      attr {
        key: "N"
        value {
          i: 1
        }
      }
      attr {
        key: "T"
        value {
          type: DT_STRING
        }
      }
      attr {
        key: "axis"
        value {
          i: 0
        }
      }
    }
    node_def {
      name: "StringSplit"
      op: "StringSplit"
      input: "packed:output:0"
      input: "Const:output:0"
      device: "/device:CPU:0"
      attr {
        key: "skip_empty"
        value {
          b: true
        }
      }
    }
    node_def {
      name: "Shape"
      op: "Shape"
      input: "StringSplit:values:0"
      device: "/device:CPU:0"
      attr {
        key: "T"
        value {
          type: DT_STRING
        }
      }
      attr {
        key: "out_type"
        value {
          type: DT_INT32
        }
      }
    }
    node_def {
      name: "strided_slice/stack"
      op: "Const"
      device: "/device:CPU:0"
      attr {
        key: "dtype"
        value {
          type: DT_INT32
        }
      }
      attr {
        key: "value"
        value {
          tensor {
            dtype: DT_INT32
            tensor_shape {
              dim {
                size: 1
              }
            }
            int_val: 0
          }
        }
      }
    }
    node_def {
      name: "strided_slice/stack_1"
      op: "Const"
      device: "/device:CPU:0"
      attr {
        key: "dtype"
        value {
          type: DT_INT32
        }
      }
      attr {
        key: "value"
        value {
          tensor {
            dtype: DT_INT32
            tensor_shape {
              dim {
                size: 1
              }
            }
            int_val: 1
          }
        }
      }
    }
    node_def {
      name: "strided_slice/stack_2"
      op: "Const"
      device: "/device:CPU:0"
      attr {
        key: "dtype"
        value {
          type: DT_INT32
        }
      }
      attr {
        key: "value"
        value {
          tensor {
            dtype: DT_INT32
            tensor_shape {
              dim {
                size: 1
              }
            }
            int_val: 1
          }
        }
      }
    }
    node_def {
      name: "strided_slice_0"
      op: "StridedSlice"
      input: "Shape:output:0"
      input: "strided_slice/stack:output:0"
      input: "strided_slice/stack_1:output:0"
      input: "strided_slice/stack_2:output:0"
      device: "/device:CPU:0"
      attr {
        key: "Index"
        value {
          type: DT_INT32
        }
      }
      attr {
        key: "T"
        value {
          type: DT_INT32
        }
      }
      attr {
        key: "begin_mask"
        value {
          i: 0
        }
      }
      attr {
        key: "ellipsis_mask"
        value {
          i: 0
        }
      }
      attr {
        key: "end_mask"
        value {
          i: 0
        }
      }
      attr {
        key: "new_axis_mask"
        value {
          i: 0
        }
      }
      attr {
        key: "shrink_axis_mask"
        value {
          i: 1
        }
      }
    }
    node_def {
      name: "string_to_index_Lookup/hash_bucket"
      op: "StringToHashBucketFast"
      input: "StringSplit:values:0"
      device: "/device:CPU:0"
      attr {
        key: "num_buckets"
        value {
          i: 1
        }
      }
    }
    node_def {
      name: "string_to_index_Lookup/hash_table_Lookup"
      op: "LookupTableFindV2"
      input: "string_to_index_lookup_hash_table_lookup_placeholder"
      input: "StringSplit:values:0"
      input: "string_to_index_lookup_hash_table_lookup_placeholder_1"
      device: "/device:CPU:0"
      attr {
        key: "Tin"
        value {
          type: DT_STRING
        }
      }
      attr {
        key: "Tout"
        value {
          type: DT_INT64
        }
      }
    }
    node_def {
      name: "string_to_index_Lookup/hash_table_Size"
      op: "LookupTableSizeV2"
      input: "string_to_index_lookup_hash_table_lookup_placeholder"
      device: "/device:CPU:0"
    }
    node_def {
      name: "string_to_index_Lookup/Add"
      op: "Add"
      input: "string_to_index_Lookup/hash_bucket:output:0"
      input: "string_to_index_Lookup/hash_table_Size:size:0"
      device: "/device:CPU:0"
      attr {
        key: "T"
        value {
          type: DT_INT64
        }
      }
    }
    node_def {
      name: "string_to_index_Lookup/NotEqual"
      op: "NotEqual"
      input: "string_to_index_Lookup/hash_table_Lookup:values:0"
      input: "string_to_index_lookup_hash_table_lookup_placeholder_1"
      device: "/device:CPU:0"
      attr {
        key: "T"
        value {
          type: DT_INT64
        }
      }
    }
    node_def {
      name: "string_to_index_Lookup"
      op: "Select"
      input: "string_to_index_Lookup/NotEqual:z:0"
      input: "string_to_index_Lookup/hash_table_Lookup:values:0"
      input: "string_to_index_Lookup/Add:z:0"
      device: "/device:CPU:0"
      attr {
        key: "T"
        value {
          type: DT_INT64
        }
      }
    }
    node_def {
      name: "Const_1"
      op: "Const"
      device: "/device:CPU:0"
      attr {
        key: "dtype"
        value {
          type: DT_STRING
        }
      }
      attr {
        key: "value"
        value {
          tensor {
            dtype: DT_STRING
            tensor_shape {
            }
            string_val: " "
          }
        }
      }
    }
    node_def {
      name: "packed_1"
      op: "Pack"
      input: "arg1"
      device: "/device:CPU:0"
      attr {
        key: "N"
        value {
          i: 1
        }
      }
      attr {
        key: "T"
        value {
          type: DT_STRING
        }
      }
      attr {
        key: "axis"
        value {
          i: 0
        }
      }
    }
    node_def {
      name: "StringSplit_1"
      op: "StringSplit"
      input: "packed_1:output:0"
      input: "Const_1:output:0"
      device: "/device:CPU:0"
      attr {
        key: "skip_empty"
        value {
          b: true
        }
      }
    }
    node_def {
      name: "Shape_1"
      op: "Shape"
      input: "StringSplit_1:values:0"
      device: "/device:CPU:0"
      attr {
        key: "T"
        value {
          type: DT_STRING
        }
      }
      attr {
        key: "out_type"
        value {
          type: DT_INT32
        }
      }
    }
    node_def {
      name: "strided_slice_1/stack"
      op: "Const"
      device: "/device:CPU:0"
      attr {
        key: "dtype"
        value {
          type: DT_INT32
        }
      }
      attr {
        key: "value"
        value {
          tensor {
            dtype: DT_INT32
            tensor_shape {
              dim {
                size: 1
              }
            }
            int_val: 0
          }
        }
      }
    }
    node_def {
      name: "strided_slice_1/stack_1"
      op: "Const"
      device: "/device:CPU:0"
      attr {
        key: "dtype"
        value {
          type: DT_INT32
        }
      }
      attr {
        key: "value"
        value {
          tensor {
            dtype: DT_INT32
            tensor_shape {
              dim {
                size: 1
              }
            }
            int_val: 1
          }
        }
      }
    }
    node_def {
      name: "strided_slice_1/stack_2"
      op: "Const"
      device: "/device:CPU:0"
      attr {
        key: "dtype"
        value {
          type: DT_INT32
        }
      }
      attr {
        key: "value"
        value {
          tensor {
            dtype: DT_INT32
            tensor_shape {
              dim {
                size: 1
              }
            }
            int_val: 1
          }
        }
      }
    }
    node_def {
      name: "strided_slice_1"
      op: "StridedSlice"
      input: "Shape_1:output:0"
      input: "strided_slice_1/stack:output:0"
      input: "strided_slice_1/stack_1:output:0"
      input: "strided_slice_1/stack_2:output:0"
      device: "/device:CPU:0"
      attr {
        key: "Index"
        value {
          type: DT_INT32
        }
      }
      attr {
        key: "T"
        value {
          type: DT_INT32
        }
      }
      attr {
        key: "begin_mask"
        value {
          i: 0
        }
      }
      attr {
        key: "ellipsis_mask"
        value {
          i: 0
        }
      }
      attr {
        key: "end_mask"
        value {
          i: 0
        }
      }
      attr {
        key: "new_axis_mask"
        value {
          i: 0
        }
      }
      attr {
        key: "shrink_axis_mask"
        value {
          i: 1
        }
      }
    }
    node_def {
      name: "string_to_index_1_Lookup/hash_bucket"
      op: "StringToHashBucketFast"
      input: "StringSplit_1:values:0"
      device: "/device:CPU:0"
      attr {
        key: "num_buckets"
        value {
          i: 1
        }
      }
    }
    node_def {
      name: "string_to_index_1_Lookup/hash_table_Lookup"
      op: "LookupTableFindV2"
      input: "string_to_index_1_lookup_hash_table_lookup_placeholder"
      input: "StringSplit_1:values:0"
      input: "string_to_index_1_lookup_hash_table_lookup_placeholder_1"
      device: "/device:CPU:0"
      attr {
        key: "Tin"
        value {
          type: DT_STRING
        }
      }
      attr {
        key: "Tout"
        value {
          type: DT_INT64
        }
      }
    }
    node_def {
      name: "string_to_index_1_Lookup/hash_table_Size"
      op: "LookupTableSizeV2"
      input: "string_to_index_1_lookup_hash_table_lookup_placeholder"
      device: "/device:CPU:0"
    }
    node_def {
      name: "string_to_index_1_Lookup/Add"
      op: "Add"
      input: "string_to_index_1_Lookup/hash_bucket:output:0"
      input: "string_to_index_1_Lookup/hash_table_Size:size:0"
      device: "/device:CPU:0"
      attr {
        key: "T"
        value {
          type: DT_INT64
        }
      }
    }
    node_def {
      name: "string_to_index_1_Lookup/NotEqual"
      op: "NotEqual"
      input: "string_to_index_1_Lookup/hash_table_Lookup:values:0"
      input: "string_to_index_1_lookup_hash_table_lookup_placeholder_1"
      device: "/device:CPU:0"
      attr {
        key: "T"
        value {
          type: DT_INT64
        }
      }
    }
    node_def {
      name: "string_to_index_1_Lookup"
      op: "Select"
      input: "string_to_index_1_Lookup/NotEqual:z:0"
      input: "string_to_index_1_Lookup/hash_table_Lookup:values:0"
      input: "string_to_index_1_Lookup/Add:z:0"
      device: "/device:CPU:0"
      attr {
        key: "T"
        value {
          type: DT_INT64
        }
      }
    }
    node_def {
      name: "Const_2"
      op: "Const"
      device: "/device:CPU:0"
      attr {
        key: "dtype"
        value {
          type: DT_INT64
        }
      }
      attr {
        key: "value"
        value {
          tensor {
            dtype: DT_INT64
            tensor_shape {
              dim {
                size: 1
              }
            }
            int64_val: 1
          }
        }
      }
    }
    node_def {
      name: "Const_3"
      op: "Const"
      device: "/device:CPU:0"
      attr {
        key: "dtype"
        value {
          type: DT_INT64
        }
      }
      attr {
        key: "value"
        value {
          tensor {
            dtype: DT_INT64
            tensor_shape {
              dim {
                size: 1
              }
            }
            int64_val: 2
          }
        }
      }
    }
    node_def {
      name: "concat/axis"
      op: "Const"
      device: "/device:CPU:0"
      attr {
        key: "dtype"
        value {
          type: DT_INT32
        }
      }
      attr {
        key: "value"
        value {
          tensor {
            dtype: DT_INT32
            tensor_shape {
            }
            int_val: 0
          }
        }
      }
    }
    node_def {
      name: "concat_0"
      op: "ConcatV2"
      input: "Const_2:output:0"
      input: "string_to_index_1_Lookup:output:0"
      input: "concat/axis:output:0"
      device: "/device:CPU:0"
      attr {
        key: "N"
        value {
          i: 2
        }
      }
      attr {
        key: "T"
        value {
          type: DT_INT64
        }
      }
      attr {
        key: "Tidx"
        value {
          type: DT_INT32
        }
      }
    }
    node_def {
      name: "concat_1/axis"
      op: "Const"
      device: "/device:CPU:0"
      attr {
        key: "dtype"
        value {
          type: DT_INT32
        }
      }
      attr {
        key: "value"
        value {
          tensor {
            dtype: DT_INT32
            tensor_shape {
            }
            int_val: 0
          }
        }
      }
    }
    node_def {
      name: "concat_1_0"
      op: "ConcatV2"
      input: "string_to_index_1_Lookup:output:0"
      input: "Const_3:output:0"
      input: "concat_1/axis:output:0"
      device: "/device:CPU:0"
      attr {
        key: "N"
        value {
          i: 2
        }
      }
      attr {
        key: "T"
        value {
          type: DT_INT64
        }
      }
      attr {
        key: "Tidx"
        value {
          type: DT_INT32
        }
      }
    }
    node_def {
      name: "add/y"
      op: "Const"
      device: "/device:CPU:0"
      attr {
        key: "dtype"
        value {
          type: DT_INT32
        }
      }
      attr {
        key: "value"
        value {
          tensor {
            dtype: DT_INT32
            tensor_shape {
            }
            int_val: 1
          }
        }
      }
    }
    node_def {
      name: "add_0"
      op: "Add"
      input: "strided_slice_1:output:0"
      input: "add/y:output:0"
      device: "/device:CPU:0"
      attr {
        key: "T"
        value {
          type: DT_INT32
        }
      }
    }
    ret {
      key: "add"
      value: "add_0:z:0"
    }
    ret {
      key: "concat"
      value: "concat_0:output:0"
    }
    ret {
      key: "concat_1"
      value: "concat_1_0:output:0"
    }
    ret {
      key: "strided_slice"
      value: "strided_slice_0:output:0"
    }
    ret {
      key: "string_to_index_lookup"
      value: "string_to_index_Lookup:output:0"
    }
    ret {
      key: "stringsplit"
      value: "StringSplit:values:0"
    }
    ret {
      key: "stringsplit_1"
      value: "StringSplit_1:values:0"
    }
  }
}
versions {
  producer: 27
  min_consumer: 12
}
